model.pth (torch, 425204 bytes, 14 tensors)

layer_1.weight f4 [400, 51]
00000000: 3eb5 10be 836b b23d e549 22be 80e0 97bd
00000010: bdd1 94bd 5713 d3bd 1487 6dbe c0f6 033e
00000020: c35a 9dbd f045 953c 1bee 0ebe 7ee1 8fbd
00000030: f0b0 e5bd a0a3 8f3d adf6 55be db67 a73d
00000040: 4054 33be 857c 0cbd 7e77 e13d 3732 8cbd
00000050: 877e 003e a9c5 89bc 890d 7d3d 6965 03be
00000060: 3dd5 003e 4544 083e 4cb9 85bd 74c1 143e
00000070: 2465 d83d cf75 ecbc 9605 d53c a41b 7e3d
00000080: ff5d babd b98e 92bd bb98 a83c 879c eebc
00000090: dbfb f6bd 9807 06be 3348 e63c 1246 073e
000000a0: af14 f53d 2137 0c3d 9f24 f4bd bb53 a73d
000000b0: e00d 96be 9844 973d 0daa 353e cf2a cabd
000000c0: 3880 13bd 13fb d6bd 8083 2fbe 8e9e f3bd
000000d0: 7ad5 5d3d e09d dd3d 7a81 9abd e9bb b5bd
000000e0: 2095 aa3c 8591 863d 1299 62bd 25a2 3ebc
000000f0: 9076 de3d e11a abbc 42fc f53d d9bc c93c
00000100: 578e ea3a 7227 5e3d 1507 f9bd d876 0fbe
00000110: 7f86 01be 7fb9 b7bd 6824 e8bd d969 bc3d
00000120: 958e 2ebd 2b1a 02be a7c1 a93c cb9a 66be
00000130: 7cf8 bb3c b111 0c3e eb3b a5bd a4d0 a9bc
00000140: ff68 efbc 4b9a a6bd 276f 0e3d b45b a6bd
00000150: e5b6 15be 83d3 c43b 4a02 e5bd 2b47 8b3d
00000160: 2e70 c73d b828 b33d a522 063e abc9 733d
00000170: f798 f7bd e619 e73d 90f2 793d a8e3 76be
00000180: f473 0abe d498 29be b45b dabc 803f e6bc
00000190: a934 05be d0c6 023d cda7 de3d 28fc 5bbe
000001a0: 3225 e03d 83fb 73be fd2e 833d 0004 75bc
000001b0: a5c4 3bbe e785 c43c 8a2d 433e 2b07 4e3e
000001c0: 8895 8cbd a8cf 5f3d fb32 063e 9f04 f83d
000001d0: 4b08 ee3d 0737 7dbd 33c3 393e 63cd e23d
000001e0: fa17 e1bd 5ca2 18bd b4e9 cbbd fe31 273e
000001f0: d3dd a13b df13 26bb 7268 1e3e 041c 2a3e
00000200: aa18 463e 90c8 81be 0d3d f4bc a04b 87be
00000210: 494e 2bbe 7a1a cc3c f098 17bd d90a 5c3c
00000220: dde1 c03d f9ba 323c 308d 7dbd c307 eb3c
00000230: 1f72 a53d 55b7 e83c 349c 6c3d adbc d4bd
00000240: 50a1 b63c 7557 cbbd 13a3 c53d b249 e43d
00000250: f0c2 783d b890 a3bc 78e3 ecbd 8997 5b3d
00000260: 01e6 1bbe 7a98 9c3d f06d 3d3d 0fb1 3b3e
00000270: 3c6e 1abe ffa5 11be 2a3a ff3d c0a2 1a3e
00000280: df21 01bd e883 db3d ecb1 eabc 16f5 2bbb
00000290: 1e19 5cbe 063b ca3d ef92 ffba 1b01 a43d
000002a0: 0d1a 9c3c 3ebb 653b 8946 48be 484a c33c
000002b0: 49dd cebd b89d 793d 7a17 353d 329b 653d
000002c0: 1010 163e d897 303d aa67 383e 4fbd c83e
000002d0: f688 39bd b60f 6b3d a241 ab3d bcec a93d
000002e0: a162 13be 23cc aa3d 92b9 243d 0db6 613d
000002f0: 5058 8f3e 23b0 cd3d dc38 93be d8d1 9f3d
00000300: bcc4 d63c 1086 023b f501 d13d e6fa 85bd
00000310: 1585 70bc e195 283d 0ef3 ec3d 6b86 203d
00000320: 6261 eebd 3319 23bd 2451 363d 0e9b 4bbd
00000330: 6661 80be b52e 533b db32 d5bd d4a2 23bc
00000340: 6a79 67bd 541c e4bd 653b 9a3d 19be d4bd
00000350: 5299 15bd 5dd8 9bbd 7b1f 91be 43b6 96bd
00000360: 3883 07be d389 f1bc 26bb 4bbe 1993 933c
00000370: 63df 9cbe 8c18 de3d f046 cb3d aff9 07be
00000380: a7e5 e8bd 5e09 3cbe a0b5 53bd dc8a 8d3c
00000390: baf6 4abe a8bc d3bd 425a 35be b9cd e63d
000003a0: fa62 32bc 7251 bdbb 9cd6 413d 2061 11be
000003b0: dfb4 9bbd dc72 93bd a3d1 0dbd 449c 553e
000003c0: e4f8 073e 7f1e 96be 8148 4c3e 348a 2fbd
000003d0: c8d7 c33d ae73 b23d 0062 933b c6cd 92bd
000003e0: 8f2d 9f3b 5cf6 3b3d af1a a0bd c097 1fbb
000003f0: 1164 f73d 371b bebc 6a15 8d3d 18b4 8dbd
-0.14131638 0.087119125 -0.15848501 -0.07415867 -0.07266567 -0.10306423 -0.2319606 0.12887096
-0.07683327 0.018221825 -0.13958018 -0.07025431 -0.11215389 0.07013631 -0.2089488 0.08174106
-0.17512608 -0.03429844 0.110091195 -0.06845515 0.12548266 -0.016817885 0.061780486 -0.12831654
0.12581344 0.13307293 -0.06529483 0.14526922 0.10566166 -0.02886477 0.02600364 0.06203808
-0.090999596 -0.071561284 0.02058064 -0.029127372 -0.12059756 -0.13088834 0.0281106 0.13210323
0.11966836 0.034232263 -0.119210474 0.08170267 -0.2930746 0.0738613 0.1774065 -0.09871446
-0.03601095 -0.10497107 -0.17140007 -0.11895476 0.054158665 0.10821128 -0.07544227 -0.08873732
0.020823061 0.065707244 -0.05532176 -0.011635338 0.10862458 -0.02088684 0.12011005 0.024626182
0.0017895204 0.054236837 -0.12159554 -0.14010179 -0.12648962 -0.089709274 -0.11335069 0.09199876
-0.042616446 -0.12705295 0.020722223 -0.22519986 0.022945635 0.13678624 -0.08068069 -0.02072937
-0.02922487 -0.08134898 0.034773972 -0.0812296 -0.1462055 0.0060066595 -0.11182077 0.068006836
0.097381935 0.08748001 0.13099153 0.059518497 -0.120897226 0.112842366 0.06102234 -0.24110281
-0.13520795 -0.16562206 -0.026655056 -0.028106451 -0.1300837 0.031927884 0.10871849 -0.21482909
0.109445944 -0.23826413 0.06405447 -0.014954567 -0.18336733 0.02398963 0.1906034 0.20119922
-0.06864458 0.054641396 0.13105385 0.121102564 0.116226755 -0.061820056 0.18140869 0.11074331
-0.10990901 -0.037264213 -0.09956685 0.16327664 0.0049397736 -0.0025341434 0.1546953 0.1661225
0.19345346 -0.2534833 -0.029814268 -0.26424885 -0.16729082 0.024914969 -0.037011087 0.013430321
0.0941808 0.010908836 -0.061902225 0.028690225 0.080784075 0.028407732 0.057766154 -0.103875495
0.022293717 -0.099287905 0.096502446 0.11146869 0.060732782 -0.019966468 -0.11566824 0.053611312
-0.15224458 0.0764627 0.046247423 0.18329261 -0.15081114 -0.14223479 0.12462266 0.15101147
-0.031526443 0.107185185 -0.028649293 -0.0026238612 -0.21493956 0.09874539 -0.0019498746 0.08008023
0.01905539 0.0035054232 -0.19558157 0.023839131 -0.101008005 0.060941428 0.044211842 0.05605621
0.14654565 0.04311356 0.18008295 0.3920693 -0.04529663 0.05738803 0.08362128 0.082971066
-0.14393093 0.08339717 0.040216036 0.055105258 0.27997065 0.10043361 -0.28754318 0.078036964
0.026216857 0.0019916333 0.102054514 -0.06541996 -0.014680167 0.04115856 0.115697965 0.03919069
-0.11639668 -0.039818954 0.044510975 -0.04970842 -0.2507431 0.0032223884 -0.104100905 -0.009987552
-0.056512274 -0.11138216 0.0753086 -0.10387821 -0.03652317 -0.076096274 -0.2834433 -0.073589824
-0.1323365 -0.029484665 -0.1989561 0.018014478 -0.3063918 0.10844526 0.0992564 -0.1327884
-0.11371928 -0.18362948 -0.051686883 0.017278127 -0.19820681 -0.10338718 -0.17710212 0.11269707
-0.010887856 -0.0057775313 0.047323808 -0.14197206 -0.07602858 -0.07199642 -0.034623753 0.20860392
0.13278538 -0.29320142 0.19949533 -0.04285641 0.095626414 0.087134704 0.0044977665 -0.071681544
0.004857726 0.045889243 -0.078175895 -0.0024351925 0.12079633 -0.023206336 0.0688885 -0.06919116

layer_1.bias f4 [400]
00000000: 2f3e 03be 81be 913d 77ed b13d 1b12 30bd
00000010: 7fb9 37bd 4d3f 2bbe 2a1e 9dbd 8b4e 203d
00000020: 9a23 dcbd e887 b83d af6f 22be 8875 ebbb
00000030: 9639 07be 15ab cd3d 7a23 71bd dadc dbbd
00000040: 35e3 9c3a 8ae7 fbbd 561c c63b 4c0f b9bd
00000050: bb17 a8bd 81c4 72bc af29 de3d 003b f6bd
00000060: a21a 073d 9784 5d3c 1736 1f3e f231 4fbd
00000070: 666b 14be f4e0 4f3c 1dc4 1c3d 5125 06be
00000080: 8734 25bd 3e6d f1bd 2eaa 193b ff04 d53c
00000090: e4d0 443d 163b 6fbd ba7f cabc b065 633d
000000a0: b8a9 893c 97fb 4cbd 150b fcbd 8125 b6bd
000000b0: 243a 0abe 4fe3 663d 74e8 e43d a1b8 c7bc
000000c0: fe22 a1bd 96a1 dabd 9e8e 813d f3d1 a9bd
000000d0: 43f2 e3bc 7640 1b3e 2e56 d43d 1e2c 4a3d
000000e0: aa69 543e d811 ecbd 13c5 b13c 2c1e db3d
000000f0: 51be f83c 96fd 00be 94ee 15be 5545 503c
00000100: 70ad 2dbd 4585 b1bc 916f 653e 536f 873c
00000110: 805a 403c 4a9d f03d 23f1 24be 20f7 36bc
00000120: 6d48 29bc 165d 51bd 16e6 2ebe 7a9b 963d
00000130: 09fb cebd 5cc7 6c3c 22b5 e3bd dc37 bfbc
00000140: 4b49 c6bd 1e82 04bd ecc6 ebbd 29d4 0dbe
00000150: 6ef9 10be 873e d8bd d438 bd3d b66b bbbc
00000160: dbe9 16be efb4 40bb 1290 2cbe 29a0 cebd
00000170: 5848 c43d d300 d8bd 47fc be3d 450c 073e
00000180: 44ca bfbd c32f 07bd 4afc 923d 70b2 9a3c
00000190: 3054 7c3d 8fea 09be 3cdc e3bd 3894 75bc
000001a0: dc5f d83d 3a26 12be 9efd fa3c 770b d9bd
000001b0: 27ac 123c f068 17bd ee0c 2abe ecc3 3cbe
000001c0: 6653 8ebd cebe 80bd 7463 d63c 44ca 16be
000001d0: e7f7 1fbe c124 17be 667c 3dbd fe5a 05be
000001e0: 8cb4 e1bc b6c7 913c 14f8 193d 584c 2ebd
000001f0: e977 4fbd 8d15 193d f3f0 06be 88f1 af3d
00000200: 1a8d ecbd 7a5e 7a3c 0b04 b13d 53da e53c
00000210: 744f 27bc 8d5d bbbc 142f 993d 45f6 353d
00000220: 36b5 3abe 28fe d33b a096 3dbd f175 c93c
00000230: 2125 aebc 6b84 983d 5d69 403d a955 76bd
00000240: fc4e 1e3e ba1f 9bbd 35cf d33d 17bb 11bc
00000250: 567e 17be 8fa3 ebbd e750 7abc 3ed6 b13d
00000260: 5e29 a53c 8696 c3bd df5d c93d 0d2a e5bd
00000270: 8f06 e2bd 8c4d 17be 3c51 bb3d d7cc bbbc
00000280: 8545 0ebe 61a1 3cbe ba50 033d 5a65 60bd
00000290: 7339 7e3e edef 3fba 5d86 833d 20c7 ce3c
000002a0: a659 2f3c e7ad 89bd 5e0e 84bc c0cc 6c3d
000002b0: fa20 83bc eb05 2d3e 2e0f c1ba a3a3 ab3d
000002c0: ae84 a43d b3fb 0e3e c79c e7bd 9012 ebbd
000002d0: 911a abbd 2638 38be bad3 e8bd a759 083d
000002e0: a03c 8abd b0e8 533b 3374 2abe ea53 ebbd
000002f0: c70e ae3d abc3 8b3d a63b 793d 0fb2 9dbd
00000300: eb58 1a3b 1784 a63c e39d 0dbe cb2f b13d
00000310: 1d09 883d e0ab 143e 7e58 fbbd 2e3e d3bb
00000320: 3f37 fabc 9c28 1dbd a373 593d a7b3 c73c
00000330: 5d0d 893d d0cf 263e 7cde 01be 7a27 98bc
00000340: 006c 4a3d 4452 b63d 4490 a4bd 0d7a 123d
00000350: 5ee0 00be 5b8f 4cbe 98c0 7cbd 5c6d c0bd
00000360: 8425 84bd 0cdd 393d e965 e5bd 6e89 a33d
00000370: fff3 ae3d 9fba 8fbd 3686 d9bd d39f f13d
00000380: 34de 25be 135a 993d 8716 e83d d4ff 1e3d
00000390: 5232 80bd 3307 96bd 47a3 5fbd 088a 39bb
000003a0: 3341 adbd 1762 77be 9dfd 2f3e 0179 23be
000003b0: 666d abbd 071f cf3c 8ff7 a3bd c095 243c
000003c0: 5ed4 22be a7b3 6ebc 0c77 22be dcf7 ebbc
000003d0: 9f65 3fbc 2871 f43d 8491 043e aeaa 0bbc
000003e0: b48c 4cbd 41db e4bd 2b4a 62bc 222a 8ebd
000003f0: f099 2ebe dbbf e3bc 7662 01bd ee1f b5bd
-0.1281669 0.07116414 0.08687871 -0.042986017 -0.044854637 -0.16723366 -0.07671769 0.039137404
-0.10748978 0.09010297 -0.15862916 -0.0071856417 -0.13205561 0.10042397 -0.058871724 -0.107354835
0.0011969568 -0.12300022 0.0060458584 -0.09036121 -0.08207651 -0.014817358 0.10847794 -0.12022972
0.032984383 0.013520381 0.15547977 -0.05058474 -0.14494094 0.01268791 0.038272966 -0.13100173
-0.040333297 -0.117884144 0.0023447382 0.026003359 0.048050776 -0.058405958 -0.024719108 0.0555169
0.016804561 -0.050044622 -0.12306801 -0.08893872 -0.13498741 0.056369122 0.111771494 -0.02438003
-0.07868002 -0.10675351 0.0632603 -0.08291998 -0.02782548 0.15161309 0.10368 0.04935848
0.20743433 -0.11526841 0.021700418 0.10699114 0.030364187 -0.12596735 -0.14641792 0.012711843
-0.04240173 -0.021669993 0.2240584 0.016532576 0.011740327 0.117487505 -0.16107611 -0.011167318
-0.010332209 -0.051114164 -0.17079958 0.073538736 -0.10106475 0.014451828 -0.11118533 -0.023342066
-0.09681948 -0.032350652 -0.11512551 -0.13850464 -0.1415765 -0.10558801 0.09239355 -0.022878509
-0.14737646 -0.002940472 -0.16851833 -0.10089142 0.09584111 -0.10547032 0.09325462 0.13188274
-0.09364751 -0.033004533 0.071770266 0.018883914 0.061603725 -0.13468383 -0.11125991 -0.014988951
0.10565159 -0.14272395 0.030638512 -0.1059789 0.008952177 -0.03696531 -0.16606495 -0.18434113
-0.06949501 -0.06286393 0.02617047 -0.14725596 -0.15621911 -0.14760114 -0.046261214 -0.13022992
-0.027551912 0.017795425 0.0375901 -0.042553276 -0.050651465 0.037374068 -0.13177852 0.0859099
-0.115503505 0.015281314 0.08643349 0.028058207 -0.010211814 -0.022871757 0.074796826 0.044424314
-0.18233189 0.006469507 -0.046286225 0.024592372 -0.021257939 0.07447132 0.046975482 -0.060140286
0.15459818 -0.07574411 0.10342256 -0.008894703 -0.14794287 -0.11505806 -0.015278078 0.086834416
0.020161327 -0.095501944 0.098323576 -0.11189661 -0.11036407 -0.14775676 0.091463536 -0.022924824
-0.13893707 -0.18420936 0.03205941 -0.054784156 0.24826603 -0.00073218235 0.06422112 0.025241435
0.010702526 -0.06722622 -0.016120132 0.057812452 -0.016006935 0.16896789 -0.0014729255 0.083808206
0.08033119 0.13963203 -0.113092 -0.1147815 -0.083546765 -0.17990169 -0.11368509 0.033288624
-0.067498446 0.0032334737 -0.16645889 -0.11490615 0.08498912 0.0682443 0.0608479 -0.076999776
0.0023551534 0.020326657 -0.1382976 0.08651694 0.06642363 0.1451869 -0.12272738 -0.0064466214
-0.030543922 -0.038368806 0.053088795 0.024377657 0.06692002 0.16290212 -0.12682527 -0.018573511
0.049419403 0.0890241 -0.08035329 0.035760928 -0.1258559 -0.19976561 -0.06170711 -0.09395859
-0.06452468 0.045376822 -0.112010784 0.07985197 0.08542632 -0.07018017 -0.10621302 0.11798062
-0.16198045 0.074878834 0.11332422 0.038818195 -0.06259598 -0.07325592 -0.054599073 -0.0028311033
-0.084597014 -0.24158512 0.1718659 -0.15964128 -0.083704755 0.02528335 -0.080062024 0.010045469
-0.15901324 -0.0145692 -0.15865725 -0.028804712 -0.011681943 0.11935645 0.12946135 -0.00852458
-0.049938872 -0.11174632 -0.013811628 -0.0694163 -0.1705091 -0.027801445 -0.03158804 -0.08843981

layer_2.weight f4 [200, 400]
00000000: 9593 a0bd 4a87 a63c 3848 65bc 9b6d 3dbd
00000010: 639d fbbc d7ca c53d a6d3 9f3c 0ae7 653c
00000020: 1d09 8fbd 3764 a63d 385c e33d 2be8 d0bc
00000030: b6b0 313d c2da 313d 3564 c73d b8f6 243d
00000040: 7cc6 8ebb 12f5 2fbd 5174 1fbb 56b4 183d
00000050: cb63 263d 63ef cabd ace8 cfbd ab7c 373b
00000060: 6a2a 033e 53fd 6f3a 0b03 5dbb cddd a43a
00000070: 0623 573c 492b 4dbd 7b89 a7bd 6a82 223b
00000080: 7b14 273c a2d3 3abc 86cc 7c3d 1de2 6f3d
00000090: 34b6 293c 12b4 b93d 95ca 9c3d b1fd 293d
000000a0: 739a 283d bc44 04bc 9cf1 83bd 14a0 e93c
000000b0: 862b 9bbd f311 9e3c 64c1 3bbd 16cc 2c3d
000000c0: be17 f4bc 8754 603d 1a80 903d ef18 ac39
000000d0: bc4a 34bd f9cb 7f3c 7fe2 26bd fbe0 1a3c
000000e0: 588d 4e3c 469d aabd 1e1d 99bc 302d c1bd
000000f0: b093 6ebc d7dd 1a3d 6465 d83d 3486 79bc
00000100: 5c31 0f3e d0b0 be3d 1f17 993b 5554 e1bc
00000110: bf10 65bd 3fdf b9bd 5e5c d93c 9780 6a3c
00000120: 6f5b a1bd 8e75 cd3d f6aa 07bc 7384 fe3c
00000130: c788 163e cea6 103d 9c7a ebba c33c be3b
00000140: 0047 d03d 072b 7cbd 5f7c 8dbb 1423 78bb
00000150: 9bbe 70bc 35c2 40bd fc6e 363d 23ba c03d
00000160: 26ae 963c 24ab 883d a4e6 cf3c bf2a 6c3d
00000170: a8ce 6e3d f050 5a3c 9bfa 13be d9bb 45bd
00000180: 475c 543d d912 76bd afd8 92bd 0ba0 98bc
00000190: cdfc d33c 66ba 8d3d 05b5 453d 029f 1fbd
000001a0: 842c 873c f519 9d3d 3687 0cbd e758 bf3c
000001b0: f0b5 94bd 0f8c e03d 5d76 613d c855 b7bc
000001c0: 5826 d83b 55a0 863d 6166 6bbd 756e a43d
000001d0: 2ee0 ba3d e375 d23c 784c febc aaa4 acbc
000001e0: 076e 94bc 71a5 aabd 0ba8 15bd c44e 22bd
000001f0: f042 38bd 1c74 b9bc e8ad 4b3c 1938 d0bb
00000200: 6bad dbbd 3bfb bb3d 4abc 193c 2cb7 9c3c
00000210: f39c 233e 65dd 00bd 6fdc 97bd e0d2 c33d
00000220: d895 393d 48ff fabb 0ebe 953c 27e1 4dbd
00000230: 1bc2 f0b9 e5a9 8a3c a67a 6bbd 4c17 743c
00000240: e105 a7bc 3ca4 6ebd f8ff f2bd d8ce bf3d
00000250: a0f0 8bbd 5b24 0d3d 22e9 ac3d 6f2f 053e
00000260: 63ab ba3c 7e55 47bc 924f 72bc 5a38 9a3c
00000270: 4bf1 50bd 597f 973c 4e28 c23d 6270 023d
00000280: 044b 6cbd 3f1f be3d ef7a 50bd 453c ad3c
00000290: eeed 2b3c c1a8 89bd 0964 263c d61b 97bd
000002a0: 1cf7 d13c c015 263d 9151 fc3d d401 07bc
000002b0: 743c 1bbd 015a ebba 349f e4bd 46ab 17bd
000002c0: 55aa 09bd 5989 eebb 597e db3c de54 fcbc
000002d0: 0c02 cbbd 52e4 ce3d 48bf 52bd 3445 b83c
000002e0: ae5a 093c 3779 eebc f5fa 03bd 3844 993c
000002f0: bc1f 87bd d581 163e 3999 613d f5e1 1b3e
00000300: ecfa 9bbc 9217 70bd 5202 833c 7230 803c
00000310: ecd2 4abc 06fd e33c be7c 04bd c36b 5abd
00000320: de8c a93d b707 a83c ac34 82bd 9a2a 243d
00000330: 4211 b2bd 9f4b 0e3d dcb4 97bb 780d bcbc
00000340: 6471 ecbd 007b b03d e166 e4bb 2dbe dfbc
00000350: 1048 33bd 151b 05bd be69 97bc 2d98 b9bb
00000360: 9e4b e83c b18f c03a eecb 173c cca3 b0bc
00000370: 5758 b23c 236b d93d 806e 71bc 1cb4 14bd
00000380: 2b64 ca3d d83c a1bc e615 bebb d164 313c
00000390: 9a16 e6bd 4027 e63d 5015 1fbc 17cd 273d
000003a0: 42f9 8b3c 3845 0abd 1a4f cc3a 3874 e13c
000003b0: 2e78 073d db24 e73d 77e1 1ebc cdce 8ebc
000003c0: 05dd ebbc 8f2f 02be d970 d43c 80c5 2cbd
000003d0: ed8f 81bd 9b3f e4bc 907d 19bd 7652 b93a
000003e0: ef0c 323d 0d9b 203d de91 6cbd 5059 4a3d
000003f0: e6ea 023e 237a fc3d eabf 53bd 7add 7b3d
-0.07840649 0.020328183 -0.013994269 -0.046247106 -0.030714696 0.09657829 0.019510102 0.014032135
-0.0698416 0.08124583 0.11101574 -0.025501331 0.043381415 0.043421514 0.0973591 0.04027435
-0.0043571573 -0.042958327 -0.0024330805 0.037281357 0.040622514 -0.09908941 -0.101518005 0.0027997892
0.12809148 0.0009154875 -0.0033723738 0.0012578309 0.013130909 -0.050090108 -0.08180519 0.002479697
0.010197754 -0.011402996 0.061718486 0.058565248 0.010358382 0.09067549 0.07655827 0.041501705
0.04116292 -0.008073028 -0.06442568 0.028518714 -0.07576661 0.019295668 -0.04583873 0.04218682
-0.029796477 0.05476811 0.070556834 0.00032824973 -0.044016585 0.015612596 -0.040743347 0.009453054
0.012606941 -0.08330779 -0.018690642 -0.09432447 -0.014561579 0.03780922 0.10566214 -0.01522975
0.13983673 0.09311068 0.0046719457 -0.027506033 -0.055924173 -0.09075784 0.026533302 0.014312885
-0.07878768 0.100321874 -0.008280506 0.031069016 0.14700614 0.035315327 -0.0017965618 0.005805583
0.10169792 -0.06156447 -0.0043178047 -0.0037862705 -0.014693881 -0.04706021 0.044539437 0.09410503
0.018393587 0.066732675 0.025378533 0.057657953 0.05830255 0.013324961 -0.14451067 -0.04827485
0.051845815 -0.06007657 -0.07170235 -0.018631002 0.02587738 0.06920318 0.048268337 -0.03897
0.016500719 0.076709665 -0.034308635 0.023357822 -0.07261264 0.10964214 0.05504452 -0.02237977
0.006596368 0.0657355 -0.057470683 0.080288805 0.0912479 0.025690978 -0.031042323 -0.021074612
-0.018118871 -0.08332337 -0.03653721 -0.039625898 -0.04498571 -0.022638373 0.012431599 -0.0063543436
-0.10726436 0.09178778 0.0093832705 0.019130312 0.1597784 -0.03146114 -0.07415091 0.095617056
0.045308918 -0.0076598264 0.018279102 -0.05026355 -0.00045920987 0.016926715 -0.057490014 0.0148981325
-0.020388545 -0.058262095 -0.118652284 0.09365624 -0.06833005 0.0344585 0.08442904 0.13006376
0.022786802 -0.012166379 -0.014789479 0.018825699 -0.051011365 0.018493341 0.09480344 0.031845458
-0.057688728 0.092833035 -0.05089849 0.021146903 0.010493739 -0.067216404 0.010155686 -0.07378356
0.025630526 0.040548086 0.12320245 -0.008240182 -0.03789945 -0.00179559 -0.11163178 -0.037028573
-0.033609707 -0.0072795567 0.026793646 -0.030802187 -0.099125 0.101021424 -0.05145195 0.022493936
0.008383436 -0.029110534 -0.032221753 0.018709287 -0.0659785 0.14697964 0.055077765 0.15222915
-0.019040547 -0.05861623 0.015992317 0.0156481 -0.012379389 0.027830612 -0.032345526 -0.053325426
0.082788214 0.020511491 -0.063577026 0.04007969 -0.08694698 0.034740087 -0.0046297144 -0.022955641
-0.11545065 0.086172104 -0.006970272 -0.027312363 -0.043769896 -0.03249653 -0.018483039 -0.0056638927
0.02835637 0.0014691261 0.009264929 -0.02156248 0.02177064 0.10616138 -0.014735818 -0.03630458
0.09882387 -0.019682333 -0.0058009503 0.010827259 -0.1123478 0.11237955 -0.009709671 0.040967073
0.017086629 -0.03375742 0.0015587539 0.027521238 0.033073597 0.112863265 -0.00969731 -0.017432595
-0.028791914 -0.12713455 0.025932716 -0.04218054 -0.0632628 -0.02786236 -0.03747326 0.0014138955
0.043469366 0.039210368 -0.057756297 0.04940158 0.12784919 0.12327983 -0.051696695 0.061490513

layer_2.bias f4 [200]
00000000: a279 1ebe d658 10be e5bb 19bd 8531 b1bd
00000010: dd41 4dbd aca5 0abd 8b8a b8bd 1a18 05be
00000020: 7482 a2bd 7a26 21be eb1e 263d d963 febd
00000030: 7739 a7bd 3712 0abe 1b35 993d 2a15 56bd
00000040: c42c 63bd 95fa f2bd cb44 9ebd fb7a a8bd
00000050: 7f23 10be 0241 0cbc 9b94 8bbc 1a92 1fbe
00000060: c278 abbc ffcc 91bd e41c f4bc 5af0 5fbe
00000070: 35d8 31be 8a47 f6bd 4eb4 6bbd 0455 77bd
00000080: edc5 1dbd 63e3 37be b473 09be 7a97 17bc
00000090: 5b8a 17be d853 87bd 470f 18bc a7ee f13c
000000a0: 5479 5cbb 6bf0 6ebe eac9 c8bd ac68 d0bd
000000b0: 8374 72be d50a 47bd 273b 35bd 9257 babd
000000c0: e9c5 9abd ea87 da3b 56ed e4bd 73fc 56bd
000000d0: a3bd f1bd f7d4 9bbd e581 1dbe 8825 99bd
000000e0: f880 57be b86a bebd d656 d0bd c503 2bbe
000000f0: 0e3c 30be 95d1 a0be 9ac7 c5bd 7df1 82bd
00000100: a99b b9bb 96f6 08be 6846 86bd ba4d 42bd
00000110: 97ac 8bbd 0a71 53bc 70c1 8fba 633b 37bd
00000120: 43c5 96bc ef7d cebd 807c 26be ff02 37be
00000130: 4ae2 503d 01e3 8dbd 4cab 1cbe 6503 83bd
00000140: 95e4 e3bd 8a03 5dbe f8f9 22be bbe0 94bd
00000150: ef4c 5ebd bc7b 09bc 6759 83be cbbc 153d
00000160: a05e febb c5af 8dbb 4260 90bd 5543 20bd
00000170: 96bb e1bd 88ec 47be c597 b9bb 4a58 86be
00000180: f552 ef3c 9d9d 08be a69c 0abe c8a9 08be
00000190: b02c 27be 6100 8bbd 1dd0 26be e1fa 06be
000001a0: 73ad 36bd ba57 a1bd 9947 553d 4a48 e03c
000001b0: 7b8e 00be a40b a33b 6ac1 cdbd 4ea9 86bd
000001c0: 7725 7dbd fd5c e7bd 2091 983d e89b 03be
000001d0: d64c 70bc c337 cfbd dcb8 01be d7bc 2f3d
000001e0: b4d7 2abd ccdb 143d bd07 a3bd ddea 08be
000001f0: 1658 f0bd cfc7 e5bc 4157 ddbd a51c 5cbd
00000200: 5bd8 0ebe 5903 9dbe f497 173d 8872 88bd
00000210: b338 ab3c b73f 9d3c 357e 55bd 77dd b1bd
00000220: cefe a6bd 59e1 66be d994 eabd ce68 9cbd
00000230: d6bc 45bd 6923 ba3c c0fd 6b3d 935c abbd
00000240: fd77 53bd 87ce 32be 2478 12be ba71 16bd
00000250: abad 94be cadc a6bd a970 f4bd 0263 7cbd
00000260: 4236 1bbe 07f3 c0bd 6c51 d4bd 12da c43c
00000270: 4559 cdbd 4a8f 9dbe 505a 25bd 0168 02be
00000280: 9c9a 44bd 4b11 d9bd 47a5 05be 0290 e6bd
00000290: 316b 58bd 1bb6 fbbd 2ad6 70bd c426 b7bd
000002a0: 7faf a83b e3f5 eabd 02f3 38bc 76f7 0f3d
000002b0: ef11 5bbd c98e 563d 9358 d4ba 2ae8 75bd
000002c0: a19d 85bd 326a a63c a3f1 06be 20a9 20bd
000002d0: 8012 733c 8b93 78bd 9b33 50be cc9e 94bd
000002e0: 40df 2cbd a313 e2bd 26c3 99bd f9db d93c
000002f0: f357 1cbe c36a 9dbd f55f ffbd 725a 8a3c
00000300: 7c8c f8bd 4e10 f3bd 1895 7fbd cfad 24bd
00000310: fe62 6cbd fdfa 34bd 801f fbbd 79b7 01be
-0.15476087 -0.14096388 -0.037532706 -0.08652023 -0.05011164 -0.033849403 -0.090108 -0.12997475
-0.07935038 -0.15737334 0.04055683 -0.12421388 -0.081652574 -0.13483511 0.07480832 -0.052266277
-0.055462614 -0.11864201 -0.07727965 -0.08226582 -0.1407604 -0.008560421 -0.017038634 -0.15583077
-0.020931605 -0.07119178 -0.029798932 -0.2186903 -0.17367633 -0.12025364 -0.057545 -0.06038381
-0.038518835 -0.17957835 -0.13423043 -0.009252423 -0.14798872 -0.06607789 -0.009280986 0.029532744
-0.0033641653 -0.233339 -0.09804137 -0.101762146 -0.23677258 -0.048594315 -0.044245865 -0.09098734
-0.075572796 0.0066690343 -0.11178081 -0.052486848 -0.118037485 -0.07608979 -0.15381582 -0.07477862
-0.21045291 -0.09297699 -0.10172813 -0.16700657 -0.17210409 -0.31409898 -0.096572116 -0.063937165
-0.005664308 -0.13375315 -0.06556398 -0.047437407 -0.06820028 -0.012905369 -0.0010967683 -0.04473437
-0.018404609 -0.10082614 -0.1625843 -0.17872237 0.050997056 -0.06928063 -0.1529972 -0.06397132
-0.11127583 -0.21583381 -0.15915668 -0.072694264 -0.05427259 -0.008391317 -0.25654146 0.036557
-0.007762745 -0.004323932 -0.0704961 -0.039126713 -0.11022107 -0.19523823 -0.0056638443 -0.26239234
0.029214362 -0.13341375 -0.13536319 -0.13346016 -0.1632564 -0.06787182 -0.16290326 -0.1318164
-0.044599008 -0.07878061 0.052070234 0.02737822 -0.12554352 0.004975753 -0.100466564 -0.06575261
-0.061803307 -0.11297033 0.074495554 -0.12852442 -0.014666757 -0.101180576 -0.12668175 0.0429047
-0.041709617 0.036342427 -0.0796046 -0.13370843 -0.11735551 -0.028049378 -0.10807658 -0.053738255
-0.1394972 -0.30666617 0.03701015 -0.0666247 0.02090106 0.01919542 -0.052122314 -0.08684819
-0.08154069 -0.22546901 -0.11454172 -0.076371774 -0.04827579 0.022721963 0.05761504 -0.083672665
-0.0516281 -0.17461596 -0.14303643 -0.03672955 -0.29038748 -0.08147581 -0.11935551 -0.06161786
-0.15157416 -0.09421354 -0.103670925 0.024029765 -0.100267924 -0.30773383 -0.04036933 -0.12734987
-0.04799901 -0.105990015 -0.1305133 -0.11257936 -0.0528366 -0.12290593 -0.058797993 -0.08942941
0.005147874 -0.114726804 -0.011288406 0.035148107 -0.0534839 0.052382264 -0.0016200714 -0.060035862
-0.06524206 0.02031431 -0.13178115 -0.03922379 0.014835954 -0.060687583 -0.20332186 -0.072568506
-0.042205095 -0.11038902 -0.07507925 0.026594149 -0.15267925 -0.07686379 -0.12469474 0.01688883
-0.1213617 -0.11868344 -0.062398046 -0.04020482 -0.057711594 -0.044184674 -0.122618675 -0.12667646

layer_out.weight f4 [1, 200]
00000000: 19f6 2bbe c0e9 4a3e 58c7 333e 5062 553e
00000010: 09e2 083e 2a5c 1c3e d1b2 3cbe 6485 f83d
00000020: fea6 06be 3dcc 103e cf60 2d3e 7200 fb3d
00000030: 363e b4bd 2bd7 353e a0b9 903d 013b d1bd
00000040: 23d4 56be 65aa b0bd baef 2abe 6f6c 32be
00000050: 59f8 41be 4e12 3b3e 5935 3d3e e5d2 513e
00000060: ae48 1c3e e28a 49be 691e 08be 6e60 053e
00000070: aad6 69be 0939 e6bd 6196 663d 35a3 463e
00000080: 9220 663d 2698 3dbe 5c54 293e a78f 3e3e
00000090: 7c78 0a3e 4db7 273e 8345 eb3d cda8 10be
000000a0: 69eb 333e 3848 2c3e e32f af3d 6ff4 28be
000000b0: f372 68be ed35 89be 5f27 083e 3cdc 72be
000000c0: 1b74 76be 04aa 1dbe 882f 54be d59b 2d3e
000000d0: ff4c 03be 76a6 3f3e 1d0a 193e 7a07 05be
000000e0: fdd1 3fbe e7f2 4fbe c45b 363e 948e 00be
000000f0: 26bd 07be 2bc3 0ebe 4ec2 c33d 0d89 4a3e
00000100: c585 2ebe b696 2fbe c530 593e c23d 313e
00000110: 0111 49be e0c7 38be aef5 d83d bd84 56be
00000120: de64 0e3e 0714 6dbe 514b 4e3e e4d3 513e
00000130: 5209 10be c31a a23d 0c13 4cbe 5379 253e
00000140: 5a20 44be d340 8fbe 52a6 64be b1ce 303e
00000150: e3cb 1e3e b7e5 1e3e 6783 fc3d 311e 9f3d
00000160: 8048 65be 5b18 1e3e 81d0 58be 8293 4abe
00000170: a360 53be 78d6 593e c5fb 35be d4e3 2ebe
00000180: 722e 133e d469 9e3d be58 253e a834 ffbd
00000190: e107 5dbe 5084 6ebe 8d8f 04be 8145 4abe
000001a0: 3149 043e 02ad 603e cb09 0c3e fd80 22be
000001b0: 3937 263e 7a27 39be 1610 273e 8351 5f3e
000001c0: 6e77 ee3d 6a54 04be ebd8 0f3e c7de 3fbe
000001d0: 227e 3c3e e66d 1cbe 7fb1 10be cd83 4d3e
000001e0: e1f3 de3d 11fa fd3d 92e5 5fbe 41f9 3d3e
000001f0: 8b40 58be 2ad7 343e 3e9c 11be 1d9e 99be
00000200: 874b 04be 3f07 413e 2888 56be cf42 54be
00000210: 3d89 ed3d e56d 233e cc60 273e 1c2e 45be
00000220: 1491 fbbd 780c 17be 6f79 73be cbee 82be
00000230: ce2b 69be 3c16 d5bd 5aff 27be 2e6c 823e
00000240: 9aae 2f3e 2c73 30be 411d 453e a7d7 1dbe
00000250: d572 c8bd de4b 373e 37dc f83d 088a 053e
00000260: 7e44 733e 3958 253e 757b 773e 384a 00be
00000270: d0d5 2e3e cc4d d53d 3e78 1cbe 2757 3d3e
00000280: d6e3 ef3d 73a1 de3d 7837 463e 9e83 49be
00000290: 31d9 f53d 787e 623e 6c60 95be f332 2dbe
000002a0: d07a 4bbe 5b66 cd3d f8f7 1b3e 43f2 283e
000002b0: 3b15 42be 0c43 3abe 88a0 53be 4d41 e33d
000002c0: c628 13be 6ea9 163e dc5c 073e 8fad 1b3e
000002d0: 44a7 3d3e 3b2b 23be 4af9 39be f79e 1f3e
000002e0: 1f30 dcbd e6eb d6bd da08 0e3e 94cf 17be
000002f0: e842 44be d169 0d3e 43df 0dbe 15f5 c83c
00000300: 8e11 4d3e dd3c 0d3e 8f6b 60be 089b 1a3e
00000310: dddc c13d 78fe 35be 1267 9b3d 5220 25be
-0.16793098 0.19815731 0.17556512 0.20838284 0.13367476 0.15269533 -0.18427588 0.12134817
-0.1314964 0.1414041 0.16931461 0.12255944 -0.08800928 0.17757861 0.07066655 -0.10216332
-0.20979361 -0.0862625 -0.16693011 -0.17424177 -0.18942393 0.18268701 0.18477382 0.20490606
0.152621 -0.19681886 -0.1329285 0.13025066 -0.22835794 -0.11241347 0.056295756 0.19398196
0.056183405 -0.18515071 0.16536087 0.18609487 0.13522524 0.16378517 0.11487868 -0.14126892
0.1757027 0.16824424 0.085540555 -0.16499494 -0.227001 -0.26798955 0.13296269 -0.23716825
-0.24067728 -0.15396887 -0.20721257 0.16953976 -0.1282234 0.18715844 0.14945264 -0.12991133
-0.18732448 -0.20307504 0.17808443 -0.12554389 -0.13255748 -0.13941638 0.09558545 0.19778843
-0.17043217 -0.17147335 0.2121001 0.17308715 -0.19635393 -0.18044996 0.10593735 -0.20949073
0.13905665 -0.23152171 0.20145918 0.20490986 -0.14066055 0.07915261 -0.19929141 0.16159563
-0.19152966 -0.27979144 -0.22329071 0.17266347 0.15507464 0.15517317 0.123297505 0.077694304
-0.22390938 0.15438978 -0.21173288 -0.19782832 -0.20642333 0.2127322 -0.17771824 -0.17079097
0.14373186 0.07735029 0.16147134 -0.12461215 -0.21585037 -0.2329266 -0.12945385 -0.19753076
0.12918545 0.21940997 0.1367561 -0.15869518 0.16232003 -0.18081465 0.1631473 0.21808438
0.11643873 -0.12922826 0.14047591 -0.18737327 0.18407491 -0.15276298 -0.1413021 0.2006981
0.1088636 0.12401212 -0.21864918 0.18552114 -0.21118371 0.17660204 -0.14219758 -0.30003443
-0.12919436 0.1885042 -0.20950377 -0.2072861 0.11598442 0.1595989 0.16345519 -0.1925587
-0.12283531 -0.1475085 -0.23776792 -0.2557281 -0.22770616 -0.104046315 -0.16406003 0.2547316
0.17156449 -0.17231435 0.1924944 -0.15414296 -0.097875275 0.17900035 0.12151378 0.13040936
0.23756596 0.16146936 0.24168189 -0.12528312 0.1707375 0.10415229 -0.15280244 0.18490277
0.11713378 0.10870638 0.19357097 -0.19679114 0.120043166 0.22118556 -0.29175127 -0.16913967
-0.19871068 0.100292884 0.15231311 0.16498666 -0.18953411 -0.18189639 -0.20666707 0.110964395
-0.14371023 0.1471307 0.13219017 0.15202926 0.18520838 -0.1593446 -0.18161502 0.15587984
-0.10751366 -0.10494213 0.13870564 -0.14825279 -0.19166148 0.13809897 -0.13854699 0.024530927
0.20026228 0.13792749 -0.2191603 0.15098202 0.094659545 -0.17772853 0.075880185 -0.1612561

conv1.weight f4 [1, 51, 3, 3, 3]
00000000: 5a1f 2ebd 53e1 9cbb dc8c 083d 7a37 94bd
00000010: 146c 4ebc b942 6f3b 1fe5 ff3c eb23 123b
00000020: c63f 093d cdcf 673d 5b79 5abd 3115 0cbd
00000030: 48cf 38bd b286 f13c f018 f73c 4323 1f3d
00000040: b18d 4fbd 767d 03bb 5cbb 943c e4c7 50bd
00000050: c61d aabc c62b 183d 1b1d 083d 94b2 2fbc
00000060: 29b8 743c d0d1 e83b 4eb0 91bd 2f58 393a
00000070: d183 0fbc cc48 863d 74c4 d7bb 1148 8fbd
00000080: cb3a 0ebd 6b57 3e3c 4142 56bb 1e7e e6bc
00000090: f652 87bc 229a fabd e01d f03c 8936 30bb
000000a0: 75bd 033c fb6f 0d3c 97b9 a93c 19c2 52bd
000000b0: 991c 98bc 122e 07bc 9d3d d6bc f5f9 6fbc
000000c0: 7041 0a3c de63 e9bc 136e 6bbd da90 e93c
000000d0: 39b1 443d 2f8e 36bc feb7 53bc 82d9 89bd
000000e0: edbb 753d 69b5 38bd bfb8 733d 527a 13bc
000000f0: 2f28 963d de10 04bc 32bd 563c 57c0 743d
00000100: 956d b23b 5f6e 003d 81e3 4a3d 9cc9 7dbc
00000110: 9d81 a13d 4edd c83c 7a34 bd3c 46ea c43c
00000120: 2f1e 74bd 3b04 383c 3e95 92bc 8e6c 203d
00000130: a5b2 a1bc e0d9 2cbd 09a7 053d 91e1 1abd
00000140: f2dc 523c 6af4 793d ed0f 71bd fdd5 97bc
00000150: eba4 513b 91db 46bc f09c 9e3c 1f4f 803d
00000160: fe5e 28bd 2fd2 bfbc 7910 e7bc 0eaf 673d
00000170: 6ced 3c3d f398 90bd 2e99 bcbd 7b6f 813c
00000180: 2c84 6bbd 7f50 493d 60d2 f5bb 0e14 5fbd
00000190: 84be f2bc c9e6 0e3d 5c15 57bc a7cb 863c
000001a0: 993c 13bd 6792 1dbc c364 46bc d9d8 7cbc
000001b0: 4ae0 fc3c b237 64bc 8a31 43bd 3665 e33b
000001c0: 35f5 0abd c0f3 1a3d ef23 1bbd c7d9 00bd
000001d0: df75 eb3c 29c8 45bc 8524 bf3a f821 953c
000001e0: 79b1 61bd 2dfa a6bc 00bc 61bd 49f8 02bc
000001f0: 9e5d 04bd 6118 57bc fc29 cdbb 222a 39bd
00000200: 9ee3 a8bb 000f cebc c03b 80bd 5b07 11bd
00000210: 6090 5b3c 75e8 88bc 9846 44bd e02f 35bd
00000220: 69a6 253d f97c 1abb 879e ac3b b4ab 15bd
00000230: be5b 683d 0421 53bc e7b2 2cbc 6045 2f3d
00000240: 6b09 2abc fc63 d83c 906e 2a3a 71ff abbc
00000250: 5db8 783c 8330 b7bc dd1b bc3c fca6 8b3d
00000260: 9f6a 60bc 52e7 433c 954c 673d 7b45 253d
00000270: 7bb0 f5bb 33bc 3cbc 737c 513d 3bad 9dbd
00000280: f17e 11bc 5458 6dbc f0f6 323d f0af c1bb
00000290: ca89 ebbc 9aa2 4cbb af49 26bc 1c16 d33c
000002a0: 87be 90bc 90a0 86bc 8a49 eabb 36f1 1fbd
000002b0: d67d 333c fb43 a33d 074d db3c 3259 c33c
000002c0: 85f3 f4bc f0a6 083d f7cc c3bc d048 e03b
000002d0: 31c8 9a3c 666a 0f3d c955 98bb 65d9 5a3d
000002e0: 1568 72bd 93ff b1bc 1979 acbb 6e8c 27bd
000002f0: 75d1 23bc 43fa 5fbd 7a98 893c 6946 00bc
00000300: 7c30 0fbd ea80 e03c 638f 76bd e163 bbbc
00000310: ad9d e7bc 1e3f e5bc 30a8 39bd 33e4 15ba
00000320: f0ec 843c 3b6c 073c a87b 4d3d 666f 093d
00000330: 950e a6bc 6d79 4a3d 8522 243d 0eaf 443d
00000340: 58f5 f7bc 3489 80bd 5af2 a23c 3a6e 53bc
00000350: 5ca3 b739 aa14 213b 0308 a8bc 05ac a4bc
00000360: cb79 2c3c 8f8f f13b 3c8f fd3c 6af8 983d
00000370: 9993 4dbc 6567 37bd 0dbc 5ebd 5b7b 623d
00000380: 022c cdbc b561 0e3d b5db 0e3c 3da3 cdbc
00000390: 2311 84bd d27d 28bc 971e 8cbc 3fb8 bb3d
000003a0: 1c0f 7e3d 035d 81bd 5d89 1c3d 2199 b7bc
000003b0: e5da 21bd 748b 20bc 2ccc 3d3c d08f 05bd
000003c0: 2bc0 c23b b3a7 a33d c0fe 0dbd d7ea a73c
000003d0: 8895 75bd b2a9 8abb 6b01 973c 66ba 3b3d
000003e0: 4256 fdbc e9bc 3a3b 28f4 103c 11e2 5abc
000003f0: dfd9 34bd bffe 8b3c 80e0 e4bc f80c 1abd
-0.042510368 -0.004787603 0.03333746 -0.07237144 -0.01259901 0.0036508276 0.031237183 0.002229924
0.033508085 0.05659466 -0.05333839 -0.034199897 -0.045119554 0.029483173 0.030163258 0.038851988
-0.050672237 -0.0020063794 0.018155746 -0.05097188 -0.02076615 0.03715112 0.033230882 -0.010723729
0.014936485 0.0071050897 -0.071137056 0.00070703303 -0.008759455 0.06556854 -0.0065846983 -0.069961675
-0.034724038 0.011617522 -0.00326933 -0.02813631 -0.016519051 -0.1223643 0.02931112 -0.0026887974
0.008040776 0.008632655 0.020718379 -0.051454637 -0.018568324 -0.00825073 -0.026152426 -0.014646997
0.008438453 -0.028490003 -0.05747802 0.028511453 0.048020575 -0.011142298 -0.012922285 -0.067309394
0.059993673 -0.04509488 0.05950236 -0.009001331 0.07331883 -0.008060662 0.013106631 0.059753742
0.005445192 0.031355258 0.04953337 -0.015489962 0.0788605 0.024519589 0.023096312 0.024037492
-0.059599098 0.011231477 -0.01789343 0.039166026 -0.019738505 -0.04219997 0.03263 -0.037812773
0.01287006 0.061024107 -0.05885308 -0.018534655 0.0031989168 -0.01213731 0.019361943 0.06265091
-0.041106217 -0.023415653 -0.028206097 0.05656343 0.04612486 -0.07060423 -0.09208904 0.015800228
-0.057499096 0.049149033 -0.0075018853 -0.054462485 -0.02963186 0.034888063 -0.013127651 0.01645453
-0.035946462 -0.009617425 -0.012108984 -0.01543256 0.030868668 -0.013929294 -0.047654666 0.0069395555
-0.033925254 0.037830114 -0.037876066 -0.03145769 0.028742729 -0.012071648 0.0014583027 0.018204674
-0.05510089 -0.020382965 -0.05511093 -0.007993766 -0.032315843 -0.013128371 -0.0062611084 -0.045206197
-0.005154087 -0.025153637 -0.062613964 -0.035407405 0.013401121 -0.016712407 -0.047918886 -0.04423511
0.040441904 -0.0023573025 0.0052679214 -0.036540702 0.056728117 -0.0128862895 -0.0105407005 0.04279077
-0.010378222 0.026414864 0.00065014604 -0.020995827 0.015180674 -0.022362 0.022962505 0.06818959
-0.013697295 0.0119570065 0.05646952 0.040349465 -0.0074978448 -0.01151948 0.051144075 -0.07699057
-0.008880363 -0.014486391 0.04369253 -0.005910866 -0.028752226 -0.0031224848 -0.0101494035 0.025767379
-0.017668976 -0.016433984 -0.00714988 -0.039048396 0.010955295 0.079719506 0.026770128 0.023846243
-0.029901275 0.03336233 -0.023901446 0.0068446174 0.018894287 0.03501358 -0.0046488983 0.05342998
-0.05918129 -0.021728313 -0.0052634594 -0.04090541 -0.009998669 -0.054682028 0.01679634 -0.007829287
-0.034958348 0.027405221 -0.060195338 -0.022874774 -0.028273428 -0.027984198 -0.04532641 -0.0005717903
0.016226262 0.00826555 0.050166756 0.033553503 -0.020270625 0.049432207 0.040071983 0.048018508
-0.030268356 -0.062761694 0.019890953 -0.012904698 0.00035026192 0.0024578967 -0.020511633 -0.020101557
0.010527085 0.00737185 0.030952089 0.07469256 -0.012547397 -0.04477634 -0.054378558 0.055293422
-0.025045399 0.03476115 0.008719374 -0.025102252 -0.06448581 -0.010283904 -0.01710443 0.091660015
0.06202613 -0.06316569 0.038216937 -0.022411885 -0.039515395 -0.009798873 0.011584323 -0.032607853
0.0059433184 0.079909705 -0.034666777 0.020497723 -0.059957057 -0.004231655 0.018433293 0.04583206
-0.03092492 0.0028493947 0.008847274 -0.0133595625 -0.04415309 0.017089246 -0.027939081 -0.037610024

batchnorm1.weight f4 [400]
00000000: 6f49 983f e9b6 863f ae0a 4b3f 7755 303f
00000010: d769 7c3f 011a 8a3f c159 843f fc8c 723f
00000020: 3174 773f 81f6 5c3f 05cf 8d3f 8f42 783f
00000030: bd1a 803f d47b 863f c4a4 8b3f 09e5 533f
00000040: 9836 2e3f 2973 653f 6fe1 473f a67b 8a3f
00000050: dc84 943f 08d4 563f 12f9 303f 6b7f 963f
00000060: 7e28 8f3f 0e62 7e3f 1ea3 873f 0bd6 0d3f
00000070: a239 813f eebf 833f b711 4b3f 8551 853f
00000080: 3692 1b3f c63b 643f 3ab1 593f afaf 843f
00000090: 1c3a 733f 3286 853f d1cb 3c3f 82bd 223f
000000a0: 2d3a 8d3f 00cc 853f 6be1 813f 3147 893f
000000b0: cbc2 8a3f c03f 813f e26e 473f 3bcf 8c3f
000000c0: 065c 913f fba1 893f 14b2 643f a759 853f
000000d0: 26f7 863f 1c70 163f f926 5e3f ce52 543f
000000e0: 0614 553f 7271 843f 7f38 4f3f a364 4c3f
000000f0: 0b8e 813f 0b8e 7f3f d115 883f 214b 433f
00000100: 5b55 693f c183 7d3f 7fa6 173f 3c2b 593f
00000110: 2570 6a3f 4ddb 743f a5b1 583f 46c7 443f
00000120: 95f8 893f 9769 8f3f 60cf 883f a1bd 4d3f
00000130: 6e7a 933f 3280 863f 959d 7b3f f584 2d3f
00000140: f734 913f d70a 5b3f c019 203f 2d44 7f3f
00000150: 5e3c 8b3f 84ca 523f 3b44 923f 013e 743f
00000160: 5749 673f fa67 773f 7017 8b3f 274f 8d3f
00000170: ea33 1c3f 460c 8b3f b6a3 873f c36a 503f
00000180: f5fb 8a3f 254e 333f 881d 5e3f b900 883f
00000190: 2269 353f 4f25 9a3f 73e7 743f 3f69 393f
000001a0: 8a39 313f d4b7 883f eeb5 833f 4d3e 853f
000001b0: 956d 613f c273 773f e6ff 8c3f 752d 693f
000001c0: f5fe 813f 6f0a 833f 938a 813f 6a97 643f
000001d0: 948b 8b3f 57c8 693f 136a 963f c7ee 873f
000001e0: eb2c 7b3f 996f 813f 40c7 453f 3b77 833f
000001f0: d04c 823f 8538 803f 1a51 963f 0d59 613f
00000200: 4652 853f c775 7c3f baf3 753f 9134 753f
00000210: 48ea 963f c8a0 3a3f 345b 263f 209a 8a3f
00000220: fa85 803f b50c 8d3f d77c 433f a12f 683f
00000230: 85df 703f c7b9 6c3f 8f81 8e3f 7b00 713f
00000240: d160 223f 4de1 693f 5f61 883f 0f4d 3c3f
00000250: 2300 8f3f 1597 903f 8a90 8c3f 8096 8d3f
00000260: 289d 353f 05ad 663f f499 4a3f a972 8c3f
00000270: d7f4 793f 3672 793f af91 943f 5fe7 5c3f
00000280: 67a4 853f 92f2 863f b751 873f 42f5 4a3f
00000290: 2b98 323f 0a69 5a3f 2c64 873f 71c0 4b3f
000002a0: 6cf9 253f 5ed9 8a3f c120 953f 86dd 8c3f
000002b0: 39e1 833f eccf 2c3f 8a95 7d3f 6554 863f
000002c0: 18e0 4e3f 142d 243f e728 823f 9427 753f
000002d0: 4824 883f 4d26 813f df27 8a3f b37e 653f
000002e0: 603a 863f d60b 693f 4c34 823f 7ec6 5f3f
000002f0: 29d8 6a3f 0fbf 6e3f beef 683f dd5f 933f
00000300: 0c92 5e3f 1077 853f ee66 8c3f e36a 5a3f
00000310: a982 893f d1f7 533f d1dc 813f 85ff 803f
00000320: 6c8c 613f 55fc 7b3f ed53 2c3f 6f27 2f3f
00000330: 3348 7f3f 9d2b 593f 4739 863f acb2 863f
00000340: f36c 5b3f f4d0 803f f6a1 8f3f f207 803f
00000350: 792a 8c3f 718d 843f 70a4 373f b60a 393f
00000360: 9880 7d3f 00a9 5d3f 7a49 893f d060 633f
00000370: ef62 6a3f 6694 603f b077 7c3f 9a9d 933f
00000380: 89b8 933f cbc9 293f 9ed1 293f 36b1 883f
00000390: 0960 773f fbc4 5d3f 17f4 733f 3b53 763f
000003a0: 0715 843f fd72 6a3f 4f1a 6d3f c917 913f
000003b0: c9b4 873f 7f2d 813f e63d 773f 6ca5 483f
000003c0: 2a58 553f e28d 933f f1a3 703f 9091 523f
000003d0: 9847 623f 62a7 553f a39f 2a3f 7b01 753f
000003e0: 6bb0 903f 81c5 833f 27f6 513f 3c8d 7c3f
000003f0: a8d9 9e3f c652 7a3f ff7a 543f eeef 573f
1.189741 1.052457 0.7931317 0.6888041 0.98599 1.0789186 1.0339891 0.94746375
0.9666167 0.86313635 1.1078802 0.9697656 1.000816 1.0506539 1.0909657 0.82771355
0.68052053 0.89628845 0.7807836 1.0818985 1.1603045 0.83917284 0.6913005 1.1757635
1.1184232 0.9936837 1.0596654 0.5540473 1.0095713 1.0292947 0.79323906 1.0415503
0.60769975 0.8915371 0.8503605 1.0366114 0.9501054 1.0431578 0.737485 0.63570416
1.1033379 1.0452881 1.0146917 1.0724851 1.0840696 1.009758 0.7790357 1.1000742
1.1356208 1.0752558 0.89334226 1.0417985 1.0544174 0.58764815 0.8677822 0.8293885
0.8323368 1.0347121 0.8094558 0.7984106 1.0121473 0.99826115 1.0631658 0.7628651
0.9114587 0.99029166 0.5923843 0.84831595 0.9157737 0.95647126 0.84646064 0.7686657
1.0778986 1.1204098 1.0688286 0.80367476 1.1521738 1.0507872 0.98287326 0.67781
1.1344289 0.85563415 0.6253929 0.99713403 1.0877798 0.82340264 1.1427072 0.9540711
0.9034628 0.9664303 1.0866528 1.103978 0.61016715 1.086312 1.0596836 0.81412905
1.0858141 0.70041114 0.8676381 1.062522 0.70863545 1.2042636 0.95665663 0.7242622
0.6922842 1.06811 1.0289896 1.0409638 0.88057834 0.9666101 1.1015594 0.91084987
1.0155932 1.0237559 1.0120414 0.8929354 1.0901971 0.9132132 1.1751121 1.0619744
0.98115414 1.0112182 0.77257156 1.0270761 1.0179691 1.0017248 1.17435 0.88026506
1.0415733 0.98617214 0.9607502 0.95783335 1.1790247 0.7290158 0.64982915 1.0828285
1.0040886 1.1019503 0.76362365 0.90697676 0.94091064 0.92470974 1.1133288 0.9414136
0.6342898 0.91359407 1.0654715 0.7355508 1.1171917 1.1296107 1.098161 1.1061554
0.70942926 0.90107757 0.79141164 1.0972492 0.9763922 0.974399 1.1606959 0.86290544
1.0440797 1.0542777 1.0571812 0.79280484 0.6976344 0.85316527 1.0577445 0.7959052
0.6483371 1.0847585 1.1650621 1.1005104 1.0303108 0.67504764 0.99056304 1.0494505
0.8081069 0.64131284 1.0168732 0.95763516 1.0636072 1.0089813 1.0793418 0.8964645
1.0486565 0.91033685 1.017221 0.8741225 0.91736084 0.9326028 0.9099082 1.151363
0.869416 1.042696 1.0968912 0.85319346 1.0742999 0.8280001 1.0145513 1.0077978
0.8810489 0.98431903 0.6731556 0.68419546 0.9971954 0.84832174 1.048623 1.0523276
0.8571312 1.0063767 1.1221302 1.0002425 1.0950462 1.0355664 0.71735287 0.7228197
0.99024343 0.86586 1.0725548 0.888196 0.9155721 0.8772644 0.9862013 1.1532471
1.1540691 0.66323537 0.66335475 1.067908 0.96630913 0.86628693 0.95294327 0.9622075
1.0318917 0.9158171 0.9261827 1.1335384 1.0602046 1.0092009 0.96578825 0.78377414
0.8333765 1.1527674 0.94000155 0.8225336 0.88390493 0.8345853 0.66649836 0.95705384
1.1303838 1.0294648 0.82016224 0.98653007 1.2410173 0.9778255 0.8300018 0.8435048

batchnorm1.bias f4 [400]
00000000: f8a4 6b3e ba35 d93c 9a3c 443e 2d83 573e
00000010: db50 913d 30d4 063d 4286 c93d 24ef f9bd
00000020: 6bce 233d 0472 75be 2422 65bd 76dc d63a
00000030: a556 f0bd 78d5 103e a66b aa3c 79e6 a03e
00000040: 538c 56be c603 2b3e 062c 8bbd 942b 58bd
00000050: 670e e5bc a020 61bc 27b5 02be 696a 8f3d
00000060: b10c e0bd a8ac a73c f776 bdbd b872 553e
00000070: 9799 093e e5bf 15bd 9ade fb3d 9145 82bb
00000080: 7b84 113e 90d9 453e a55f ff3c fa5f e43d
00000090: 9694 3e3d c8d0 ca3d bb9a 8c3e 357f 72bb
000000a0: fb0c 3b3e 14ba 2f3d 2110 e83d 4071 153b
000000b0: 8bb0 db3e a838 713d f8f9 c6bd c32c af3d
000000c0: dd1a 363d b5c4 123e d202 973c becd 30bc
000000d0: 6d5e ee3c c58b 80be 982a 44be 53bc 483e
000000e0: 77c0 b33d 18c5 553d 7a56 2a3e caf9 60be
000000f0: 89c1 f43d d643 cd3d b7f2 b23b 6c97 413d
00000100: d1e2 02bb d8c7 e53b 21a6 c43d 5fad b53b
00000110: 6e75 27bd e7f8 09be 39c1 3c3c e0a9 9d3e
00000120: 1972 633d 2aa2 0f3e 29ab 9e3d 5843 f3bd
00000130: c6a7 523d 20eb e63d ff30 1a3d 6bcb 063e
00000140: 7a21 1a3d f7b1 ed3d cd8e b13d 675e cb3d
00000150: cfd5 223c 15ab 8bbd bc05 72bd d589 b53d
00000160: 261a 483d aa4f 1cbd cf13 533d 094f c73d
00000170: a446 243d 4731 83bc 110e c93d d2e9 79bd
00000180: 45af a93d 84a2 f43c 92ca 7f3d 4bb5 adbd
00000190: 9ab2 c43d df81 27be bc02 a83d 8361 a9bd
000001a0: 2d55 4cbe 3957 ec3b 5bed 383d e380 1d3d
000001b0: 29e9 ae3c 42e8 7ebc 57a4 2a3e 2817 993b
000001c0: 365e e13d 515d 6e3e bd71 7d3e 8710 413e
000001d0: b120 f0ba b8ef 00be 9583 c7b9 ccbe 823d
000001e0: 3d3e 293d a95c 413d 5ca1 173e d251 93bd
000001f0: 6e44 313e 1f13 083d c21f 153e 8d66 1fbe
00000200: 85a8 bf3d 5595 453d 85cc 48bd b930 203e
00000210: dc06 2a3e cd69 833e ad81 30be 04d3 f83d
00000220: f7f9 d5bb 8fb7 473e 26fd 79bd b496 dd3c
00000230: cada fbbc 428b c33d c832 353b d909 9ebd
00000240: 0a1b 20be 7fa5 103e 4e76 203e 0eb5 ca3d
00000250: 5174 d63d 0890 9bbd d7e5 d9bd 9cdd c63c
00000260: e6c8 88bb 0bb4 cfbd 5a6b 863d 7f09 00bd
00000270: 1411 9a3d 1bb7 4f3e bcdd 363d 6fbc 72bd
00000280: f881 3c3e eacb 9ebc e115 44bd e8fb 673e
00000290: 79b8 e43c e039 643d a62d 963d d908 ac3d
000002a0: 38ed edbc 2b0e df3c 4d92 15bc 3483 013e
000002b0: f0b1 383e 678a 07bd 8b9f 103d 59ca 983b
000002c0: 5be0 223d 9481 17bb da8a c2bd 344c 47ba
000002d0: a1be 873e a0b0 a73d a1ba be3d 268e 8e3e
000002e0: 0c25 363d 0116 293e db60 213e a78a 303e
000002f0: 289d 84bd 15c9 6dbd bbc6 803e 7eb3 0fbe
00000300: d752 fc3e c63b a53d 9561 773d b597 edbd
00000310: 9eec fb3b 317a 243e 2a08 08bd aa12 3f3d
00000320: e5b1 f33c 6c73 223c 7dab fe3b 34b4 363e
00000330: 988c 3a3e 6dbc dd3d dd35 8a3d 746d e4bd
00000340: 9ae3 b6bc 2db6 c53c 6054 c03d 2892 653d
00000350: 3520 193c ccf7 a33d bf9f b13d 737d e9bd
00000360: 70cf d3bc 6be7 8abe 4929 7a3d dae5 9d3c
00000370: b8d5 5f3e 97c0 ba3d e16c a1bd 7e13 a3bd
00000380: e81e c63c a061 f43c 908b 51be 93bd 473e
00000390: 7e6a 3d3e b200 2d3e 523b 50bc 34f8 83ba
000003a0: fe46 2b3e 310f eb3d a314 a43d 2b45 0f3e
000003b0: e313 6bbe 1f0d eebd 20b5 043e 47b5 023e
000003c0: a2f1 293e c271 d03d 0d71 253e dbf4 343e
000003d0: 0a4f 993d 49a2 7f3e a543 d03d 6774 febd
000003e0: 3f6e c53d 48ab ca3d c110 de3d 1f1b 30be
000003f0: acb9 cebe ed6c 813c e090 5e3c 83fb 983d
0.2301215 0.026514877 0.19163743 0.21046133 0.070955 0.0329172 0.09840061 -0.122038156
0.039991777 -0.23969275 -0.055940762 0.0016392607 -0.11735276 0.14143932 0.020803284 0.31425837
-0.20951967 0.16700658 -0.06795506 -0.052775934 -0.02796097 -0.013740689 -0.12764417 0.07002718
-0.10939921 0.020468071 -0.09251206 0.20844543 0.13437496 -0.036559958 0.12298317 -0.003975578
0.14210694 0.19321275 0.031173537 0.111511186 0.04652842 0.09903103 0.274618 -0.003700209
0.1826667 0.042902067 0.11331201 0.0022803098 0.4290813 0.058891922 -0.097156465 0.085534595
0.044459213 0.1433285 0.018433962 -0.01079124 0.02909776 -0.25106636 -0.19156873 0.1960309
0.08776944 0.052189916 0.1663455 -0.21970287 0.119509764 0.10022704 0.005461063 0.047263548
-0.001997162 0.0070123486 0.09601999 0.005544349 -0.040883474 -0.13473855 0.011520677 0.30793667
0.055528734 0.14026704 0.0774749 -0.11878079 0.051429532 0.11275315 0.037644383 0.13163535
0.037629582 0.1160621 0.08669815 0.09930115 0.009938671 -0.06819741 -0.0590875 0.0886418
0.048853062 -0.03816191 0.051532563 0.09731872 0.04010643 -0.016014708 0.09817136 -0.061014004
0.08285383 0.02986265 0.062449045 -0.084818445 0.09604378 -0.16358136 0.082036465 -0.08270552
-0.19954367 0.007212546 0.045148235 0.038452994 0.021351414 -0.015558304 0.16664253 0.00467195
0.110042974 0.23277785 0.24750419 0.18853961 -0.001832029 -0.12591445 -0.00038054274 0.06384048
0.04131912 0.04720751 0.14807647 -0.0719334 0.1731126 0.03322136 0.14562896 -0.15566464
0.093583144 0.048238117 -0.04902317 0.15643586 0.16604179 0.25666657 -0.17236967 0.12149623
-0.0065300423 0.19503616 -0.061032437 0.0270494 -0.030743975 0.09548046 0.0027648676 -0.07716722
-0.15635315 0.14125632 0.1567013 0.09897815 0.10471404 -0.07595831 -0.106395416 0.024275593
-0.0041743396 -0.10141762 0.065634444 -0.031259056 0.07522789 0.20284693 0.044645056 -0.059261736
0.18408954 -0.019384343 -0.047872428 0.22654688 0.027919995 0.055719256 0.073329255 0.08400125
-0.029043779 0.027228436 -0.009129119 0.12647706 0.18036628 -0.033090975 0.035308402 0.0046627936
0.039764743 -0.0023118006 -0.0949914 -0.0007602603 0.26512626 0.081879854 0.093129404 0.27842826
0.044468924 0.165123 0.15759604 0.17240392 -0.06475288 -0.058053095 0.2515162 -0.14033315
0.49281952 0.080680415 0.060395796 -0.116012014 0.007688119 0.16062237 -0.03321091 0.04664866
0.029747913 0.009915214 0.007771908 0.1784218 0.18217695 0.10826955 0.06748555 -0.11153689
-0.022325326 0.02413472 0.09391093 0.05604759 0.009346058 0.08006248 0.08673047 -0.11400881
-0.02585575 -0.27129683 0.06107453 0.01927464 0.21858871 0.09118765 -0.07882095 -0.07962702
0.02418466 0.029831707 -0.20463395 0.1950591 0.18497655 0.16894796 -0.012709456 -0.0010068477
0.167263 0.11477507 0.08011749 0.13991229 -0.22956805 -0.116235964 0.12959719 0.12764464
0.16596082 0.101779476 0.16156407 0.1767153 0.07485779 0.2496425 0.10169152 -0.12424546
0.096401684 0.098959506 0.10843039 -0.17197846 -0.4037603 0.01579901 0.013584346 0.07469847
