test.pth (torch, 140702 bytes, 14 tensors)

layer_1.weight f4 [204, 51]
0	0x3de05446	0.10953574
1	0x3de97a3b	0.11400267
2	0x3df46e68	0.11935121
3	0xbd947b81	-0.07250119
4	0xbd3e03a3	-0.046390187
5	0xbdfa1f6c	-0.122130245
6	0xbdd5b58b	-0.10435017
7	0xbd03346d	-0.03203242
8	0x3b27f153	0.0025626018
9	0x3aef8bee	0.0018275955
10	0x3dd23c96	0.10265462
11	0x3d74f28c	0.059801623
12	0xbd93c150	-0.07214606
13	0xbe031216	-0.12799868
14	0x3dc34661	0.09534908
15	0xbd56e601	-0.052465443
16	0x3d1661dd	0.036714423
17	0xbd0576ee	-0.032584123
18	0x3cf8ac29	0.03035553
19	0x3d3ff223	0.04686178
20	0xb9ab45e5	-0.00032667737
21	0xbe04373c	-0.12911695
22	0x3dba1071	0.09085167
23	0xbc5b39a2	-0.01338044
24	0xbd5fc91d	-0.054635156
25	0x3da5760d	0.08079157
26	0x3cda8732	0.026675794
27	0xbdf42f8f	-0.119231336
28	0x3d49d74e	0.049277596
29	0x3e02e6be	0.12783334
30	0x3dfad251	0.12247146
31	0xbdd311f9	-0.103061624
32	0xbd9533ef	-0.07285296
33	0x3d6a3686	0.057180904
34	0x3dfb74af	0.12278115
35	0xbd3064d8	-0.043064922
36	0x3cf60d78	0.03003572
37	0x3d0dd7d5	0.03462966
38	0xbdfbb96b	-0.12291225
39	0xbdafe1ad	-0.08587966
40	0x3d832d76	0.06405155
41	0xbd68ac8b	-0.056805175
42	0xbd4a7108	-0.0494242
43	0x3d4aff89	0.049560104
44	0x3df2fc70	0.11864555
45	0xbd22e3cc	-0.039768025
46	0x3dfe8a14	0.1242868
47	0xbd28d4d6	-0.0412186
48	0xbdcaa69d	-0.0989506
49	0x3dfb93c4	0.122840434
50	0xbde1e6a3	-0.110303186
51	0xbe003b6f	-0.12522672
52	0x3e2a7995	0.16647942
53	0x3e0c82ac	0.13721722
54	0xbce4305b	-0.027855089
55	0xbe17545a	-0.14778271
56	0xbd0f01ae	-0.03491371
57	0x3d8ca0a0	0.06866574
58	0x3e069ead	0.13146468
59	0x3e00a718	0.12563741
60	0x3d51d6b1	0.051230136
61	0x3d62d1cf	0.05537587
62	0xbccc2c12	-0.024923358
63	0xbd6a7216	-0.057237707
64	0xbd99c8ca	-0.075090006
65	0x3d59371b	0.05303107
66	0xbbc07f69	-0.0058745635
67	0x3e08d8d3	0.13363962
68	0xbd96aadc	-0.073568076
69	0xbd344a6b	-0.044016283
70	0xbdb594fa	-0.08866306
71	0xbcadb2d2	-0.021203432
72	0x3deb26b1	0.11481989
73	0x3de23bb5	0.110465445
74	0xbca7a325	-0.020463536
75	0x3df65efa	0.12029834
76	0xbce4c8e9	-0.027927833
77	0xbe3bb70b	-0.18331544
78	0x3e0b01d7	0.1357492
79	0xbda2cbd4	-0.079490334
80	0xbe06cce6	-0.131641
81	0xbdce9368	-0.10086709
82	0x3e0f71d4	0.14008266
83	0x3d1dfd08	0.038571388
84	0x3c98f48c	0.018671297
85	0xbd8b4690	-0.06800568
86	0x3d45b2ca	0.04826621
87	0xbdbf9968	-0.09355432
88	0xbd25123c	-0.040300593
89	0xbdaa723f	-0.08322572
90	0x3d37200e	0.044708304
91	0x3dfe88fe	0.12428473
92	0xbd6b6721	-0.0574714
93	0x3bd7a800	0.0065813065
94	0xbdb606b9	-0.08888001
95	0xbdf62a0f	-0.12019741
96	0x3d87e77c	0.06635949
97	0xbd29405b	-0.04132114
98	0x3da2cad0	0.0794884
99	0x3db0b1b2	0.08627643
100	0x3e1ddd62	0.15416482
101	0x3d01ecc1	0.031719927
102	0xbe15d34a	-0.14631382
103	0x3d11b798	0.03557548
104	0x3d0b4cb1	0.034008685
105	0x3d4f91b3	0.05067606
106	0x3cd1c1f3	0.025605178
107	0x3ace2e80	0.0015730411
108	0x3dde793b	0.108629666
109	0x3d707a7e	0.058710568
110	0xbd165541	-0.0367024
111	0x3d55a317	0.052157488
112	0x3cc28778	0.023746237
113	0xbe1150c6	-0.14190969
114	0x3ce32e8b	0.027732154
115	0x3d2c571a	0.042075254
116	0xbdfa1875	-0.12211696
117	0x3d1b4a23	0.0379125
118	0xbcc3d1b7	-0.02390371
119	0xbdb4dd7e	-0.08831309
120	0xbe06fb0f	-0.13181709
121	0xbd8334a0	-0.06406522
122	0xb9568e5a	-0.0002046166
123	0xbdba063d	-0.09083221
124	0x3e169ef9	0.14709081
125	0xbcb2f635	-0.021845916
126	0xbdce8674	-0.10084239
127	0x3dd90dae	0.10598312
128	0xbcb992c6	-0.022652995
129	0xbb775ddc	-0.0037745154
130	0xbe03ecf5	-0.1288336
131	0xbde50ad3	-0.11183705
132	0xbd18a6e0	-0.03726852
133	0x3d64f4c0	0.055897474
134	0x3c8e3546	0.017359387
135	0x3d3d78d1	0.046257798
136	0xbbbf6f7f	-0.005842149
137	0x3dad95b1	0.08475817
138	0x3d311459	0.043232296
139	0xbc4abcbb	-0.012374098
140	0xbc5991a3	-0.013279351
141	0xbdfe0fb4	-0.12405339
142	0xbdee8123	-0.116457246
143	0x3df541c2	0.11975433
144	0xbde0923c	-0.10965392
145	0x3c9499ba	0.018139709
146	0x3d28104e	0.041031174
147	0xbe007269	-0.12543644
148	0xbd28974f	-0.041159924
149	0x3d644f74	0.055739835
150	0xbc50f1f8	-0.012753002
151	0xbd8bda04	-0.068286926
152	0x3dd957a9	0.10612423
153	0x3da5de7a	0.08099075
154	0x3a8ff239	0.0010982222
155	0xbe22a583	-0.1588345
156	0x3d33769a	0.04381428
157	0xbd329b2f	-0.043605026
158	0xbd8c0609	-0.068370886
159	0x3e31f050	0.17376828
160	0xbc0b0250	-0.008484438
161	0xbdb81dbe	-0.08990048
162	0x3cee558a	0.029093523
163	0xbd8668d3	-0.065629624
164	0x3d9700ad	0.07373176
165	0xbd63a913	-0.055581164
166	0xbdf89ef6	-0.121396944
167	0xbd8049ab	-0.06264051
168	0x3dde2c6c	0.108483166
169	0xbd8cc472	-0.068734065
170	0x3df5cb0b	0.12001618
171	0x3d640ee2	0.055678256
172	0xbd40541b	-0.04695521
173	0x3c2fd156	0.010731062
174	0x3dac0c48	0.0840078
175	0xbb5cb3e8	-0.0033676568
176	0x3d979807	0.07402044
177	0xbdf03a9e	-0.1172993
178	0x3e1a1683	0.1504765
179	0xbd9fa6fd	-0.07795522
180	0xbd826f7d	-0.06368921
181	0xbc321485	-0.01086915
182	0x3e333246	0.17499647
183	0xbd3d65f1	-0.046239797
184	0x3d2fd6c1	0.042929415
185	0xbda7ac5f	-0.08187174
186	0xbdedff47	-0.11620956
187	0x3d3f2c5b	0.04667316
188	0x3ce836a0	0.02834636
189	0x3d0b5070	0.034012258
190	0xbccec348	-0.025239602
191	0xbda7e2a0	-0.08197522
192	0xbd649ce9	-0.055813704
193	0xbd43a1a5	-0.047761578
194	0x3c9c8d1f	0.01911026
195	0x3d4df27c	0.05028008
196	0xbd8c86be	-0.068616375
197	0x3c9daee3	0.019248432
198	0xbde45b24	-0.11150196
199	0xbd8d6fce	-0.06906091
200	0xbdf607cc	-0.12013206
201	0xbe05c157	-0.13062035
202	0x3da97972	0.08275117
203	0xbd666b14	-0.05625446
204	0x3e0bb622	0.13643697
205	0x3c009b55	0.007849534
206	0xbdb3f673	-0.08787241
207	0x3e005c37	0.12535177
208	0xbdbf5c75	-0.09343807
209	0x3cac57b8	0.021037921
210	0x3d82e6f8	0.0639171
211	0xbb82d480	-0.003992617
212	0x3ca2f25e	0.01989096
213	0xbd6f8556	-0.05847677
214	0xbd2238f4	-0.039605096
215	0xbba801fc	-0.0051271897
216	0xbd3a7587	-0.04552224
217	0x3e19f39f	0.1503434
218	0x3c8aa158	0.016922638
219	0x3b8e299a	0.0043384554
220	0x3dac144e	0.0840231
221	0x3d3ee4af	0.04660481
222	0xbd0c13a8	-0.034198433
223	0x3d6a5a6a	0.05721513
224	0x3def0af3	0.1167201
225	0xbd00a39a	-0.031406023
226	0x3cd97e08	0.026549354
227	0x3df7e8b7	0.12104934
228	0xbdd33526	-0.10312872
229	0xbd8b1e28	-0.06792861
230	0xbd46249a	-0.04837475
231	0xbe06e68a	-0.13173881
232	0x3d3d056b	0.046147745
233	0xbd081e58	-0.033232063
234	0x3e0d8376	0.1381968
235	0x3d5609e2	0.05225552
236	0xbdef0954	-0.11671701
237	0xbb850df0	-0.0040604994
238	0x3cbba97e	0.022907969
239	0xbe06fe81	-0.13183023
240	0xbe0a7ec6	-0.13524923
241	0xbd0d57f6	-0.034507714
242	0xbdd0d379	-0.10196585
243	0x3dbe6909	0.092973776
244	0xbd57c060	-0.052673697
245	0x3dc88145	0.09790281
246	0x3dc578c4	0.09642175
247	0x3de9a0be	0.11407612
248	0x3ba4f806	0.0050344495
249	0x3d8aa23a	0.067692235
250	0xbd78f333	-0.060778808
251	0xbdfcd8f0	-0.12346065
252	0x3d1540b4	0.03643866
253	0xbdc5d5df	-0.09659933
254	0x3e18a759	0.14907588
255	0xbdfd116a	-0.12356837

layer_1.bias f4 [204]
0	0x3e0c96c7	0.13729392
1	0x3dd00894	0.10157886
2	0x3d868070	0.06567466
3	0xbd93ae60	-0.07210994
4	0xbdc2b4ba	-0.09507127
5	0xbdd7d38c	-0.10538396
6	0xbdf9964e	-0.121868715
7	0xbd72ca1e	-0.059274785
8	0xbc20294f	-0.009775474
9	0xbde77941	-0.11302424
10	0x3d8660d3	0.065614365
11	0x3dbb654e	0.09150182
12	0xbdfaee06	-0.122524306
13	0xbd34c689	-0.04413465
14	0x3d64b6ce	0.0558384
15	0xbdd82aa8	-0.10555011
16	0x3d933ad1	0.07188953
17	0x3d2bab5d	0.04191147
18	0x3d8ab8e3	0.067735456
19	0x3deb8581	0.11500073
20	0x3e104048	0.14087021
21	0x3dd62d54	0.104578644
22	0xbd667b6c	-0.056270048
23	0x3d20c4bb	0.039250117
24	0x3dac606a	0.08416827
25	0xbe030bf2	-0.12797526
26	0x3e0b5879	0.13607968
27	0x3d808cc0	0.06276846
28	0x3d126bee	0.03574746
29	0xbdecf05e	-0.11569284
30	0xbdd4ad04	-0.103845626
31	0xbe34b5cd	-0.17647476
32	0x3d76e24d	0.06027441
33	0x3cf9ddc7	0.03050126
34	0x3c9a174b	0.018809935
35	0x3dae52ad	0.08511863
36	0x3ddbb11e	0.10727142
37	0x3dc5ba97	0.0965473
38	0xbda71f8a	-0.081603125
39	0x3de6cd74	0.11269656
40	0xbdb49db6	-0.088191435
41	0xbd93f4e1	-0.07224441
42	0xbda54959	-0.080706306
43	0x3e089d75	0.13341315
44	0xbde1b06c	-0.11019978
45	0x3d51af5f	0.051192638
46	0x3deb7981	0.114977844
47	0xbe0e26ad	-0.13881941
48	0xbdb434f2	-0.08799161
49	0x3d937827	0.072006516
50	0x3df2837d	0.11841486
51	0x3d85fda2	0.06542517
52	0x3e0499ba	0.12949267
53	0xbd4548a3	-0.048164975
54	0x3da1e080	0.07904148
55	0xbdad4057	-0.084595375
56	0xbde9996b	-0.11406215
57	0xbcac0669	-0.02099915
58	0xbdda24f1	-0.10651577
59	0x3d977a43	0.073963664
60	0xbce65103	-0.028114801
61	0x3d317954	0.0433286
62	0x3c9717b4	0.01844392
63	0xbc946597	-0.018114848
64	0x3e001fff	0.12512206
65	0x3dc2d094	0.09512439
66	0xbdd05288	-0.101719916
67	0x3e139452	0.14412048
68	0xbddf7dad	-0.10912643
69	0xbe06e4ac	-0.13173169
70	0x3cb889e4	0.022526689
71	0xbd3d9f65	-0.04629459
72	0xbda66cf6	-0.081262514
73	0x3d73d624	0.059530392
74	0xbe0a4878	-0.13504207
75	0x3dd2abe4	0.10286692
76	0xbd303280	-0.04301691
77	0xbe03923a	-0.1284875
78	0xbde214ac	-0.11039099
79	0x3d102e1a	0.035200216
80	0x3d0c01b8	0.034181327
81	0x3de78e71	0.113064654
82	0xbda437ec	-0.08018479
83	0x3cd5ac68	0.026083186
84	0x3e0ecbdf	0.13944958
85	0x3dbc9b93	0.09209361
86	0xbd6bf201	-0.05760384
87	0xbd94ff6a	-0.07275279
88	0x3d39a2e3	0.045321357
89	0xbcf7145f	-0.03016108
90	0xbd795bdc	-0.06087862
91	0xbd8d1d07	-0.06890302
92	0x3d01dac4	0.03170277
93	0x3da45696	0.080243275
94	0x3d9bb4f5	0.07602874
95	0xbd9520e9	-0.07281668
96	0xbb3486dc	-0.0027546203
97	0xbde8acd1	-0.11361087
98	0x3dac9b87	0.08428102
99	0xbd977f85	-0.07397369
100	0x3e07ed4e	0.13274118
101	0x3da61c69	0.081108876
102	0xbde0cb7e	-0.10976313
103	0x3c56deb5	0.013114621
104	0x3c06ea5a	0.008234585
105	0x3df029b2	0.11726703
106	0xbaa9319c	-0.0012908462
107	0xbcb0cf22	-0.021583144
108	0xbdb91ba1	-0.09038473
109	0xbc0123bc	-0.007882055
110	0xbd8fe9ea	-0.070270374
111	0xbce3ee7c	-0.02782368
112	0xbced87fe	-0.02899551
113	0x3c586b20	0.013209134
114	0xbde4057f	-0.11133861
115	0x3d552dcb	0.052045625
116	0x3b67ba27	0.0035358758
117	0x3d7c5928	0.061608464
118	0xbd5fb73c	-0.054618105
119	0x3d18612f	0.037202056
120	0xbc98fd50	-0.018675476
121	0x3d12acb0	0.03580922
122	0xbd576a05	-0.052591342
123	0x3de12dda	0.109950736
124	0xbb9adc48	-0.0047259666
125	0x3c88457c	0.016634695
126	0xbd25f23e	-0.040514223
127	0xbd5d0193	-0.05395658
128	0x3b6ace7d	0.0035828643
129	0x3ccf9ae9	0.025342422
130	0x3dcb5d64	0.09929922
131	0x3dbf8d9a	0.0935318
132	0xbd8a3261	-0.0674789
133	0x3dfe9159	0.124300666
134	0xbbb9b3b6	-0.005667175
135	0x3dfc4781	0.12318326
136	0xbc9d8005	-0.019226084
137	0xbd3b67d9	-0.045753334
138	0x3d4bb815	0.0497361
139	0xbd8fc9e6	-0.07020931
140	0x3d22fb8a	0.039790668
141	0x3d964721	0.073377855
142	0x3e14b898	0.14523542
143	0xbd8175f3	-0.06321325
144	0x3cbf6e94	0.023368157
145	0xbc46232f	-0.012093349
146	0xbd2ab02e	-0.041671924
147	0x3c4a638a	0.0123528335
148	0x3b4f534e	0.0031635347
149	0x3e0bdace	0.13657686
150	0xbdc04c7b	-0.093895875
151	0x3d07c771	0.033149187
152	0x3c8b296f	0.01698753
153	0xbdb3a924	-0.087724954
154	0x3d53c04b	0.051697057
155	0x3d5e2a7b	0.05423973
156	0xbd3fff14	-0.04687412
157	0xbdcf54d7	-0.10123604
158	0x3d0b7a8e	0.034052424
159	0xbdc65650	-0.096844316
160	0x3cc0d2c6	0.023538005
161	0xbd44916d	-0.04799025
162	0x3bd74b00	0.00657022
163	0xbdbddeee	-0.09271036
164	0xbd6f11ef	-0.058366712
165	0xbcaa5da9	-0.020796614
166	0xbda68dd1	-0.08132518
167	0xbc35e801	-0.011102677
168	0xbdae49db	-0.085101806
169	0xbd88116a	-0.066439465
170	0xbcc78ddf	-0.024359642
171	0xbdd0c996	-0.101946995
172	0x3dcf2ea7	0.1011632
173	0x3d8c2547	0.068430476
174	0x3d0ff8ea	0.035149492
175	0x3dab0e71	0.08352364
176	0x3d85e6f1	0.06538189
177	0x3d9698ed	0.07353387
178	0xbde0d943	-0.109789394
179	0x3e040a7a	0.12894621
180	0xbdc25e44	-0.09490636
181	0xbdbaa6e3	-0.09113862
182	0x3dd10de1	0.10207725
183	0x3e07b0a5	0.13250978
184	0x3d8a0cbf	0.067407124
185	0xbd8fa4fa	-0.07013889
186	0x3c7baf6e	0.01536165
187	0x3d59f107	0.053208377
188	0xbdcc374e	-0.09971486
189	0x3df12d21	0.11776186
190	0xbe0f7058	-0.140077
191	0x3d393bbe	0.04522299
192	0x3db65e46	0.089047
193	0xbdb78cd6	-0.08962409
194	0xbd1be911	-0.038064066
195	0x3dc60079	0.09668059
196	0x3dec1f2a	0.115293816
197	0xbc3e5cc2	-0.011618795
198	0x3b701117	0.003663128
199	0x3e0e18f9	0.13876714
200	0xbddd135f	-0.1079471
201	0x3cb12d9c	0.021628194
202	0xbe0529a2	-0.13004163
203	0xbd9b01b8	-0.07568687

layer_2.weight f4 [100, 204]
0	0xbc552465	-0.013009165
1	0xbc59bb3f	-0.013289272
2	0x3d9bc2aa	0.076054886
3	0xbd8a3a99	-0.06749458
4	0x3c5ed59e	0.013600735
5	0x3bcc569e	0.0062359115
6	0x3c461f75	0.012092461
7	0xbbcb0783	-0.006195964
8	0x3d629470	0.055317342
9	0xbbba79f7	-0.005690809
10	0x3d312686	0.04324963
11	0xbd376504	-0.04477407
12	0x3d2d6c66	0.042339705
13	0x3d413d69	0.047177706
14	0x3d8ee858	0.0697791
15	0x3c4752b4	0.012165714
16	0x3d8bd208	0.0682717
17	0xbd28dd8a	-0.0412269
18	0xbc6e52b5	-0.014546086
19	0x3cbc44b3	0.022981977
20	0xbc16ae62	-0.00919685
21	0x3d5e729b	0.054308515
22	0xbb956fb0	-0.0045604333
23	0x3d38892a	0.045052685
24	0x3c09db70	0.008414134
25	0x3c5332a8	0.012890495
26	0xbd09749c	-0.033558473
27	0xbd6b5a20	-0.057458997
28	0x3b1602e7	0.0022889914
29	0xbaf3addb	-0.0018591242
30	0xbd72a35d	-0.059237827
31	0x3c6f2381	0.014595867
32	0x3d905770	0.070479274
33	0xbd142080	-0.036163807
34	0x3c09ec99	0.008418226
35	0x3c76bcb3	0.015059638
36	0x3cf367b3	0.029712534
37	0x3cc59670	0.024119586
38	0x3d4c6f0d	0.049910594
39	0x3d45caf8	0.04828927
40	0x3cf96e80	0.030448198
41	0x3d2527c9	0.040321145
42	0xbd65e7ee	-0.05612939
43	0xbceb4381	-0.028718712
44	0xbc053ed5	-0.008132656
45	0xbc9d6be1	-0.01921648
46	0x3cc6498b	0.02420499
47	0x3d4e4a92	0.050364085
48	0x3d1852f4	0.037188485
49	0x3c38f2bc	0.011288341
50	0xbcde91b1	-0.02716908
51	0xbd813f10	-0.06310856
52	0xbd1d78c2	-0.03844524
53	0x3d41f0a0	0.04734862
54	0x3bb8ccb0	0.005639635
55	0x3c0d2d83	0.008616808
56	0xbd03bd53	-0.032162976
57	0xbd89d6b4	-0.067304045
58	0x3cbc9fe8	0.023025468
59	0x3ccfe024	0.025375433
60	0xbc3bfb7f	-0.011473536
61	0x3d068b1f	0.03284752
62	0xbccb6649	-0.024829047
63	0xbd8451c0	-0.06460905
64	0xbd29081f	-0.04126751
65	0xbd92f4fa	-0.07175632
66	0x3d63cc7a	0.055614926
67	0xbda3e646	-0.080029055
68	0x3d773ad0	0.060358822
69	0xbd8e7ead	-0.06957755
70	0xbb8aa4e6	-0.004231083
71	0x3c08e259	0.008354747
72	0xbc02b4c1	-0.007977665
73	0xbbe925a5	-0.0071150833
74	0x3bca7691	0.006178685
75	0x3cac6194	0.021042623
76	0xbcfe1d6b	-0.031019887
77	0xbc987b01	-0.01861334
78	0xbd01b150	-0.03166324
79	0xbd416405	-0.047214527
80	0xbc5b5458	-0.013386808
81	0x3c966916	0.018360656
82	0x3d5602c4	0.05224873
83	0x3b1c307e	0.0023832615
84	0xbd48631e	-0.04892265
85	0x3cc0430c	0.02346947
86	0x3d7c3db6	0.06158229
87	0xbbb26c6b	-0.0054450533
88	0xbc96ba7d	-0.018399471
89	0x3d2aa9f4	0.041665986
90	0xbc3d09c8	-0.011537977
91	0x3d1d618c	0.038423106
92	0xbd047fbd	-0.032348383
93	0xbd413d64	-0.047177687
94	0xbb0609b7	-0.0020452568
95	0xbbcff8b2	-0.0063467855
96	0xbd6ccb49	-0.057811055
97	0xbd8502d7	-0.06494682
98	0xbd3af288	-0.045641452
99	0x3c0fd628	0.008779086
100	0x3d37df58	0.04489073
101	0xbd23b7f3	-0.03997035
102	0xbc29c07a	-0.010360831
103	0x3b8bbd8d	0.0042645396
104	0x3d478873	0.048714112
105	0xbd8194fa	-0.06327243
106	0xbd1f7d8f	-0.0389381
107	0xbcc3f2ab	-0.023919424
108	0xbc71612f	-0.014732643
109	0x3bb3788d	0.0054770173
110	0x3c977bbe	0.018491622
111	0xbc1bee9a	-0.009517336
112	0xbd0bf964	-0.034173384
113	0xbd15df51	-0.036589924
114	0x3db3b5f6	0.08774941
115	0xbc7fa691	-0.015603677
116	0xbd859c7a	-0.06523986
117	0x3d9eff44	0.07763532
118	0xbd045345	-0.032305975
119	0x3d7bc5a2	0.061467774
120	0x3c9b2e7d	0.018943066
121	0xbd1bc954	-0.0380338
122	0xbc90a3e0	-0.017656267
123	0xbd0bd474	-0.034138158
124	0x3cca220d	0.02467444
125	0x3c314ffe	0.010822294
126	0x3ad0ae96	0.0015921171
127	0x3cda6ce7	0.026663257
128	0x3d7c4807	0.061592128
129	0xbc69f77f	-0.014280199
130	0xbd5e3c63	-0.054256808
131	0xbd0fa8d7	-0.035073128
132	0x3d95c679	0.07313246
133	0x3c6e7412	0.0145540405
134	0xbc324628	-0.010880984
135	0xbd65562a	-0.055990376
136	0xbcc9db26	-0.02464063
137	0x3d807c2e	0.062736854
138	0xbd33ecc1	-0.043926958
139	0x3cf7858e	0.030215051
140	0xbcfff919	-0.031246709
141	0xbd31b1b7	-0.043382373
142	0xbd82ed76	-0.06392948
143	0x3d529c73	0.051418733
144	0x3c33d25c	0.010975447
145	0xbd422211	-0.04739577
146	0x3ca64181	0.020294907
147	0x3ccfe74f	0.025378851
148	0xbc045924	-0.008077893
149	0x3d385fe9	0.045013342
150	0xbc464d14	-0.012103338
151	0xbd5f2737	-0.054480758
152	0x3d8dc781	0.06922818
153	0x3d18666b	0.03720705
154	0x3ca793e0	0.020456254
155	0xbba51f49	-0.00503913
156	0xbd677cb8	-0.056515425
157	0x3d9d5971	0.07683075
158	0xbd40d875	-0.04708143
159	0x3d45e361	0.04831255
160	0xbccf7211	-0.025322946
161	0x3d05b763	0.032645594
162	0x3d4550a9	0.048172627
163	0xbce03ad0	-0.027371794
164	0xbd4e0af0	-0.0503034
165	0x3d4b40eb	0.049622457
166	0xbc49b29f	-0.012310653
167	0x3d8ebae5	0.06969241
168	0x3d5581e9	0.052125845
169	0xbda32cf4	-0.079675585
170	0x3c8acbaa	0.016942818
171	0x3d32a053	0.04360993
172	0xbd07203f	-0.032989737
173	0x3c45c314	0.012070436
174	0x3c0d2702	0.008615257
175	0x3da0e46b	0.07856067
176	0xbd66614a	-0.056245126
177	0xbc7cc467	-0.015427685
178	0xbd942ab6	-0.07234709
179	0xbcdc6a4a	-0.026906151
180	0xbd205516	-0.039143644
181	0x3c4824a2	0.012215765
182	0xbc873117	-0.0165029
183	0xbcce80c7	-0.02520789
184	0xbcf9fc0e	-0.030515697
185	0xbd088b0a	-0.033335723
186	0x3d430ef0	0.047621667
187	0x3ca986d2	0.02069417
188	0x3d515b8f	0.051112708
189	0xbc326726	-0.01088885
190	0x3d75b83d	0.059990156
191	0xbd09f656	-0.03368219
192	0xbd8cd22f	-0.06876027
193	0xbce62ee8	-0.028098539
194	0xbcf51940	-0.029919267
195	0x3bd6f461	0.006559894
196	0x3cd93a8f	0.02651718
197	0x3d006c5a	0.031353332
198	0x3d0cddf0	0.034391344
199	0x3d88e893	0.06684985
200	0xbd23b179	-0.039964173
201	0xbd158d27	-0.036511566
202	0xbd414879	-0.047188256
203	0xba0d6faf	-0.00053953653
204	0xbd94d64e	-0.07267438
205	0xbd7e8632	-0.062139697
206	0x3d8cc594	0.068736225
207	0xbd16f39c	-0.036853418
208	0x3d51cc40	0.05122018
209	0x3d5f7139	0.054551337
210	0xbc58d404	-0.013234142
211	0xbd94e8ef	-0.07270991
212	0x3d4e1c9e	0.05032026
213	0x3d31c09f	0.04339659
214	0xbd076961	-0.03305948
215	0x3d0e8019	0.034790132
216	0xbd387532	-0.04503364
217	0xbd12a9ea	-0.035806574
218	0x3c1e5beb	0.00966547
219	0xbce1cebb	-0.027564397
220	0x3c453261	0.012035937
221	0x3c4f615d	0.012657491
222	0x3d75c3de	0.060001247
223	0xbd8b9895	-0.06816212
224	0x3cb453f7	0.022012694
225	0xbd7d7dc9	-0.061887536
226	0xbcabafbb	-0.020957818
227	0xbd1a7fc2	-0.037719496
228	0xbcf6bef7	-0.030120356
229	0x3c1d39d2	0.009596305
230	0x3cc833c7	0.024438752
231	0x3ba97f98	0.005172681
232	0xba4311e5	-0.0007441326
233	0x3be368cf	0.0069399844
234	0xbd99037f	-0.0747137
235	0x3d56d1da	0.052446224
236	0xbb062cfe	-0.0020473595
237	0x3d6913af	0.056903537
238	0x3c3c7edc	0.011504855
239	0x3d8b4bec	0.0680159
240	0x3d6e7eef	0.058226522
241	0x3c312f0a	0.010814438
242	0x3c2b7743	0.010465446
243	0x3d0b170c	0.033957526
244	0xbc734693	-0.014848369
245	0xbc192643	-0.009347501
246	0x3d6e0b70	0.058116376
247	0xbd5aeca6	-0.05344834
248	0xbd30a7b8	-0.0431287
249	0x399daa64	0.00030072324
250	0xbd5bfec5	-0.053709764
251	0x3d237ee8	0.03991595
252	0x3bd67c9a	0.0065456154
253	0x3d44d1cb	0.048051637
254	0xbbed88ef	-0.00724899
255	0x3cf998fc	0.030468456

layer_2.bias f4 [100]
0	0xbdbfeb34	-0.09371033
1	0xbd10738a	-0.035266437
2	0xbd70c1d3	-0.058778595
3	0x3c83b8e6	0.016079377
4	0xbdca655a	-0.098826125
5	0x3c8c5cad	0.017134035
6	0x3c48f4b0	0.012265369
7	0xbd887160	-0.066622496
8	0xbd1f05f0	-0.03882402
9	0xbd0ad64c	-0.033895776
10	0xbd871878	-0.06596464
11	0xbd603d9c	-0.054746255
12	0xbdbb0d10	-0.09133351
13	0xbd26fffd	-0.040771473
14	0xbceb3fde	-0.028716978
15	0xbc9434e6	-0.01809163
16	0xbce8e68e	-0.02843025
17	0xbd823dbf	-0.063594334
18	0xbd182186	-0.037141345
19	0xbd467f17	-0.048461046
20	0xbb948208	-0.0045321025
21	0xbe0ec3e1	-0.1394191
22	0xbbe24c09	-0.0069060368
23	0xbdb3a4ad	-0.08771644
24	0xb9ab1721	-0.00032632894
25	0xbdba0afb	-0.090841256
26	0xbc7d356a	-0.015454629
27	0xbc799ff5	-0.015235891
28	0xbddd1ce1	-0.10796524
29	0x3a348a90	0.00068871025
30	0xbceea140	-0.029129624
31	0xbd55bf3f	-0.05218434
32	0xbda4d0d6	-0.08047645
33	0x3cf606ea	0.030032594
34	0x3c79f274	0.015255559
35	0xbdbc1a36	-0.09184687
36	0xbb2376de	-0.0024942677
37	0xbc9251ed	-0.01786133
38	0xbd5cfd26	-0.05395236
39	0xbb59fcdf	-0.0033262295
40	0xbd09adec	-0.03361313
41	0xbe05fc7e	-0.130846
42	0xbdb43d6a	-0.08800776
43	0x3c4f4f84	0.012653235
44	0xbd9c1fd2	-0.07623257
45	0x3c99cb13	0.018773591
46	0x3c4bcf14	0.012439508
47	0xbba928d8	-0.0051623397
48	0xbd903fc3	-0.070434116
49	0xbd3d5b48	-0.04622963
50	0xbc27b277	-0.01023542
51	0xbcefca06	-0.029271137
52	0x3cf00120	0.029297411
53	0xbdc39402	-0.095497146
54	0xbde9eacb	-0.11421736
55	0xbdebc5c8	-0.11512333
56	0xbc8eeb3e	-0.017446157
57	0xbe077de6	-0.1323162
58	0xbdcf216b	-0.10113796
59	0xbc86759e	-0.016413506
60	0xbd0b5d4c	-0.03402452
61	0x3d11870f	0.035529193
62	0xbc8279ee	-0.015927281
63	0x3b9a7d27	0.0047146264
64	0xbcfc90e1	-0.030830802
65	0xbceb5a1b	-0.02872949
66	0xbd7d83c5	-0.061893243
67	0xbc9daa63	-0.019246286
68	0xbd999de1	-0.07500816
69	0x3c454113	0.012039441
70	0xbd06ec21	-0.032940034
71	0xbd9eb074	-0.077484995
72	0xbd16a549	-0.036778722
73	0xbd4aa29c	-0.049471483
74	0xbd2ac64f	-0.041693028
75	0xbd7afb44	-0.06127478
76	0xbdda5768	-0.10661203
77	0x3aa15c4a	0.001231083
78	0xbdcc56a9	-0.099774666
79	0xbd958edb	-0.07302638
80	0xbc6b9165	-0.0143779265
81	0xbe0966fe	-0.13418195
82	0xbdc1d3ea	-0.094642475
83	0xbddfc935	-0.10927049
84	0xbd23150b	-0.03981499
85	0xbacd7c39	-0.001567728
86	0x3b2a6b7e	0.0026004012
87	0xbd364dd4	-0.044507816
88	0xbdae29a1	-0.08504034
89	0xbc980871	-0.018558713
90	0xbd59cf5e	-0.053176276
91	0x3cc0e399	0.023546027
92	0x3d8d6164	0.069033414
93	0xbdede2f8	-0.116155565
94	0xbdce1e4b	-0.10064372
95	0x3cdeb3f4	0.027185418
96	0xbcf46581	-0.029833557
97	0xbb41660b	-0.0029510285
98	0x3b54dc25	0.003247985
99	0xbde71f6c	-0.1128529

layer_out.weight f4 [1, 100]
0	0xbe1ceec3	-0.15325455
1	0x3e18336a	0.14863363
2	0xbe3cb205	-0.18427284
3	0x3db216a1	0.08695722
4	0x3e34076a	0.17580953
5	0x3e1855a7	0.14876424
6	0x3daa253b	0.083078824
7	0xbe2702bc	-0.16309637
8	0xbe016d4e	-0.12639353
9	0x3e3fea78	0.18741786
10	0xbded5644	-0.115887195
11	0x3de69ae9	0.112600155
12	0xbe65a582	-0.22426417
13	0x3e27e555	0.16396077
14	0xbe2492ec	-0.16071671
15	0x3e326ec1	0.17425062
16	0xbe2e2f30	-0.17010188
17	0xbe45d816	-0.19320711
18	0xbe3116a6	-0.17293796
19	0x3e56e43b	0.209855
20	0x3e0bae77	0.13640772
21	0xbe4521d6	-0.19251189
22	0xbdfcd878	-0.12345976
23	0xbe314a7a	-0.17313567
24	0xbe1515bc	-0.14559072
25	0xbe20a5f8	-0.15688312
26	0x3dd06a70	0.10176551
27	0x3dba63a3	0.091010354
28	0x3dc81d95	0.09771267
29	0x3dd37908	0.10325819
30	0x3e387fa4	0.18017441
31	0xbe2a78bb	-0.16647618
32	0x3e486e29	0.19573273
33	0x3e3b60a0	0.18298578
34	0x3d5fcb68	0.054637343
35	0xbdea559d	-0.11442111
36	0x3d396798	0.04526481
37	0xbddeef36	-0.108854696
38	0xbe320dcf	-0.1738808
39	0xbe55583e	-0.20834443
40	0xbe089c38	-0.13340843
41	0x3e0a57fa	0.13510123
42	0xbe1e9689	-0.15487112
43	0xbdeddddb	-0.11614581
44	0x3e68bc1d	0.2272801
45	0xbdf3174f	-0.1186968
46	0xbe2e0a78	-0.16996181
47	0xbe165e38	-0.14684379
48	0xbe41778d	-0.18893261
49	0xbd86484c	-0.06556758
50	0x3d80edd6	0.062953636
51	0xbe13ee47	-0.14446364
52	0xbdce33b0	-0.10068452
53	0xbde75ecb	-0.11297377
54	0x3e17d6ee	0.14828083
55	0x3deb50f0	0.11490047
56	0xbe4bf27c	-0.19916719
57	0x3dfc3337	0.12314456
58	0xbe811b22	-0.25216013
59	0x3dfade5e	0.122494444
60	0xbe1a8c57	-0.15092598
61	0x3e3dc689	0.18532766
62	0x3e4e579a	0.20150605
63	0x3d9db19f	0.07699894
64	0x3e012799	0.12612762
65	0x3df6ab3d	0.1204438
66	0x3dc3ece7	0.0956667
67	0xbde6a750	-0.11262381
68	0xbe47a2c9	-0.19495691
69	0x3e3bfb07	0.18357478
70	0xbe223cdf	-0.15843533
71	0xbe1c525a	-0.1526579
72	0x3dbf7a7d	0.09349535
73	0xbe0938a6	-0.13400516
74	0x3da8c79c	0.082411975
75	0xbe1efcf0	-0.15526175
76	0x3db6de9e	0.089291796
77	0x3dc4caa5	0.09608964
78	0xbdf76aba	-0.12080903
79	0xbdf0bca6	-0.11754732
80	0xbe2a9134	-0.16656953
81	0xbe7fc70c	-0.24978274
82	0x3e19ecf3	0.15031795
83	0xbe002381	-0.12513544
84	0xbde0fab9	-0.109853216
85	0xbe19b4bc	-0.15010351
86	0x3e4382f7	0.19092928
87	0xbe425306	-0.18976983
88	0x3ddce7a4	0.107863694
89	0xbe04622c	-0.12928075
90	0x3e3a5bd4	0.18199092
91	0x3e3ed4f3	0.18635921
92	0x3d1a9dd4	0.037748173
93	0xbe17aead	-0.14812727
94	0x3e18b96c	0.14914483
95	0x3e476a93	0.19474249
96	0x3dd765e5	0.10517482
97	0xbdb53c37	-0.08849376
98	0x3dbed50f	0.093179815
99	0xbe55ecfe	-0.20891187

conv1.weight f4 [1, 51, 3, 3, 3]
0	0xbd9e5287	-0.077305846
1	0xbdc898cf	-0.09794771
2	0xbc09b009	-0.008403786
3	0xbb4d3828	-0.003131399
4	0xba255e09	-0.0006308263
5	0xbcd89820	-0.026439726
6	0xbd0f9148	-0.03505066
7	0x3d158ac1	0.03650928
8	0x3aaf51d9	0.0013375833
9	0xbd1fb358	-0.038989395
10	0x3d446136	0.04794427
11	0xbcb6763c	-0.022273175
12	0xbd09d112	-0.03364665
13	0xbc79a83b	-0.015237863
14	0x3d59888e	0.053108744
15	0x3ce5b7b9	0.028041707
16	0x3cddda34	0.027081586
17	0x3cbb69d4	0.022877611
18	0xbd070695	-0.03296526
19	0xbd295655	-0.0413421
20	0xbd048ecf	-0.032362755
21	0x3d22bf46	0.039733194
22	0x3cb53669	0.022120671
23	0x3b9bd00b	0.0047550253
24	0xbd57e00e	-0.05270391
25	0xbd2d6bcd	-0.042339135
26	0xbd2fe301	-0.042941097
27	0x3d822b17	0.06355875
28	0x3dac3734	0.08408967
29	0xbc55dd35	-0.013053228
30	0xbc59164d	-0.013249946
31	0x3d89ea72	0.0673417
32	0x3c016e09	0.00789977
33	0xbd4612bf	-0.04835772
34	0x3c4673a4	0.012112532
35	0xbb5f1a8b	-0.003404292
36	0xbd54e66e	-0.051977567
37	0xbdc5dd65	-0.09661368
38	0xbd7bb5c5	-0.061452646
39	0x3c5837e6	0.013196921
40	0xbcdd39bb	-0.027005067
41	0xbd403864	-0.04692878
42	0xbd5e5fcc	-0.054290578
43	0xbcfe166f	-0.031016557
44	0xbcc842b9	-0.024445878
45	0xbcb81151	-0.022469195
46	0xbcb34d11	-0.021887334
47	0xbd1b9f75	-0.037993867
48	0x3d897989	0.06712634
49	0x3d776860	0.060402274
50	0x3c51c2ab	0.01280276
51	0x3d37955e	0.044820182
52	0x3c115b63	0.008871886
53	0x3d714b2a	0.058909573
54	0x3c92c874	0.01791785
55	0xbc141107	-0.009037263
56	0x3ce526e2	0.027972642
57	0xbd1258a7	-0.035729077
58	0x3d16d584	0.036824718
59	0x3c2ba3ce	0.010476066
60	0x3c4ac45e	0.012375919
61	0xbd1632e4	-0.036669627
62	0x3c346452	0.011010246
63	0xbcb4f7e2	-0.022090856
64	0x3a653fd7	0.00087451696
65	0xbd0102bf	-0.03149676
66	0x3d43c11f	0.047791597
67	0xbc7a7093	-0.015285629
68	0x3d3a3637	0.04546186
69	0xbcfa8965	-0.030583093
70	0x3d8677f4	0.06565848
71	0xbc4d18b8	-0.0125181
72	0x3d373d2e	0.04473608
73	0xba35da60	-0.00069371425
74	0xbd14073f	-0.036139723
75	0xbd6c69b4	-0.057717994
76	0xbdaded47	-0.08492523
77	0x3b89e7e8	0.0042085536
78	0x3d314630	0.043279827
79	0xbd42249f	-0.047398206
80	0x3c8dfe37	0.017333133
81	0xbd8b4237	-0.06799739
82	0xbd36c0b8	-0.044617385
83	0x3cfdbd54	0.030974068
84	0x3d21fc58	0.039547294
85	0xbe01feae	-0.12694809
86	0x3d048cf8	0.032361
87	0xbc96042b	-0.018312534
88	0x3cfad642	0.030619744
89	0x3ce0f019	0.027458237
90	0x3db1f8f6	0.08690064
91	0x3bd5dc4f	0.006526507
92	0x3d8355f1	0.064128764
93	0x3d82a862	0.06379773
94	0xbc61a1ff	-0.013771533
95	0x3cdcd788	0.026958242
96	0x3b5d9c4e	0.0033815089
97	0x3b391038	0.0028238427
98	0x3d3b3624	0.04570593
99	0xbc911cf3	-0.017714
100	0x3c8fb53c	0.017542474
101	0xbcf9862a	-0.030459482
102	0x3ca78e1e	0.020453509
103	0x3cd0fcdb	0.025511196
104	0x3b4c7b90	0.0031201579
105	0x3c6dfae5	0.01452515
106	0xbc633c26	-0.013869321
107	0x3d612208	0.054964095
108	0x3d7e1efb	0.062041264
109	0xbd793d3e	-0.06084942
110	0xbc430fa3	-0.011905584
111	0xbd83df94	-0.064391285
112	0x3ce513ae	0.027963486
113	0x3d902072	0.070374385
114	0xbd0cd4a6	-0.034382485
115	0xbbaac847	-0.005211863
116	0x3d024de9	0.031812582
117	0x3ca10bb3	0.019658899
118	0xbcb45e91	-0.022017749
119	0x3d035de2	0.032071956
120	0x3d29122b	0.041277092
121	0xbd1269ce	-0.035745434
122	0xbcaf8fa5	-0.0214308
123	0xbcc4728b	-0.0239804
124	0xbc95b44e	-0.018274453
125	0x3d0eef6b	0.034896296
126	0x3cce9247	0.025216235
127	0x3d413091	0.047165457
128	0x3d51ac3e	0.051189654
129	0x3d7296e8	0.059225947
130	0x3c973ece	0.018462565
131	0xbdc8aa8a	-0.09798153
132	0xbd764fbf	-0.060134646
133	0xbd8c975f	-0.06864809
134	0xbc2df798	-0.010618113
135	0xbd64e3a1	-0.055881146
136	0x3bd539c5	0.006507131
137	0xbdcb2884	-0.09919837
138	0x3c35ddc4	0.011100236
139	0x3c223c4d	0.009902072
140	0xbcf19045	-0.029487738
141	0x3c6d5e0f	0.014487757
142	0xbb30c36c	-0.002697195
143	0x3d233cc7	0.039852884
144	0xbc01ad67	-0.0079148775
145	0x3c0f8afb	0.008761163
146	0x3c4d1440	0.012517035
147	0x3d197f9c	0.037475213
148	0xbbaff8ae	-0.005370221
149	0x3c475179	0.012165421
150	0xbc4155b2	-0.0118002165
151	0xbbc32d4b	-0.005956327
152	0x3bff1c43	0.0077853515
153	0x3c27ad60	0.010234207
154	0xbd48cad4	-0.049021557
155	0x3d1fc9c9	0.039010797
156	0xbc88a64c	-0.016680859
157	0xbc577e71	-0.013152705
158	0xbd4a95e9	-0.04945937
159	0xbd751ec1	-0.059843782
160	0x3c0db226	0.008648431
161	0xbc61a332	-0.013771819
162	0xbcc0676f	-0.023486821
163	0xbdd1996d	-0.10234342
164	0xbca11444	-0.019662984
165	0x3d49e03e	0.04928612
166	0x3d578920	0.052621007
167	0x3ca4215f	0.020035444
168	0xbd1641ef	-0.036683973
169	0xbc40a0e5	-0.01175711
170	0x3cd98c39	0.026556121
171	0xbd465733	-0.048423003
172	0x3cc2aeec	0.02376505
173	0xbc1049c7	-0.008806652
174	0xbc2d1a59	-0.010565364
175	0x3ced311f	0.028954087
176	0xbb2f3410	-0.0026733913
177	0xbd633754	-0.055472687
178	0xbc41fc19	-0.01183989
179	0x3db7cf06	0.089750335
180	0x3bffb293	0.00780327
181	0xbd239df2	-0.03994555
182	0x3c1c03c9	0.009522387
183	0xbcd3f351	-0.025872858
184	0x3cdd1119	0.026985692
185	0x3c552840	0.013010085
186	0xbcc806fb	-0.024417391
187	0xbca66891	-0.020313533
188	0xbcd5d733	-0.026103592
189	0x3c59eb00	0.013300657
190	0x3c131d30	0.008979127
191	0xbc15fbdd	-0.009154287
192	0xbbd0bc3c	-0.0063700955
193	0x3c3c193b	0.011480625
194	0xbaad4661	-0.0013219827
195	0x3d469851	0.048485104
196	0x3c22ef7d	0.009944794
197	0xbd1e0f24	-0.038588658
198	0x3cf5aaec	0.029988728
199	0xbd4c2812	-0.0498429
200	0x3d07020c	0.032960936
201	0x3d3f1a5d	0.046656
202	0xbd3777d4	-0.04479201
203	0xb9698ba7	-0.00022272636
204	0x3d069777	0.032859292
205	0x3c100b9f	0.008791833
206	0x3c469e7f	0.012122749
207	0x3a6ad0bb	0.0008957495
208	0x3d1c0802	0.038093574
209	0x3c8b80b8	0.017029151
210	0xbd552fec	-0.052047655
211	0xbd16bd0e	-0.03680139
212	0x3cb4bfef	0.022064177
213	0x3c32d5db	0.010915245
214	0x3d4cdefa	0.050017335
215	0xbd46a2f3	-0.048495244
216	0x3cb84ea8	0.022498444
217	0x3df26197	0.1183502
218	0xbd86f775	-0.065901674
219	0xbc4d87cb	-0.012544583
220	0xbca331d6	-0.019921225
221	0xbcde11b0	-0.027108043
222	0xbc5584de	-0.013032166
223	0xbdaffac9	-0.08592755
224	0xbce82b00	-0.028340816
225	0xbb7acf47	-0.003827052
226	0x3ba85b7d	0.0051378594
227	0xbcc530ac	-0.02407106
228	0xbc18aa0c	-0.009317886
229	0x3d3698c1	0.04457927
230	0x3d2bd994	0.041955546
231	0x3d2823ed	0.041049886
232	0x3da4f48f	0.08054458
233	0xbc55bde0	-0.013045758
234	0xbad04db4	-0.0015892298
235	0xbc0df5b6	-0.008664539
236	0xbcb83c69	-0.022489743
237	0xbc82b3c4	-0.01595486
238	0xbd99739d	-0.074927546
239	0x3cbbd00f	0.022926359
240	0xbd0a9899	-0.033836935
241	0x3cf274ad	0.029596651
242	0xbd347285	-0.044054527
243	0xbbf1009a	-0.007354808
244	0xbcc1a32c	-0.023637377
245	0x3d9f7c1c	0.07787344
246	0x3cb3e464	0.021959491
247	0xbcf2556c	-0.029581748
248	0x3d939d82	0.072077766
249	0xbd370b37	-0.04468843
250	0x3c7cb39d	0.0154236825
251	0x3d12956d	0.035787035
252	0xbb719f60	-0.0036868677
253	0x3bfde1ea	0.0077478783
254	0x3d4c3f8f	0.0498653
255	0xbd752102	-0.05984593

batchnorm1.weight f4 [204]
0	0x3f7fbc34	0.9989655
1	0x3f7cbedc	0.9872873
2	0x3f7b84c2	0.9824945
3	0x3f824597	1.0177487
4	0x3f7c9681	0.9866715
5	0x3f7d3fa8	0.98925257
6	0x3f77dab2	0.9681808
7	0x3f7953e7	0.9739365
8	0x3f802ca1	1.001362
9	0x3f78ed13	0.97236747
10	0x3f7e65ee	0.9937428
11	0x3f7e7ee2	0.9941236
12	0x3f7d9e14	0.99069333
13	0x3f80f2f2	1.0074141
14	0x3f7c3797	0.98522323
15	0x3f801936	1.0007694
16	0x3f7f933a	0.99834025
17	0x3f7aad7d	0.9792097
18	0x3f7f2b41	0.99675375
19	0x3f7ce1fa	0.9878231
20	0x3f7ef8d4	0.9959843
21	0x3f7da58b	0.99080724
22	0x3f80256f	1.0011424
23	0x3f7ee69e	0.99570644
24	0x3f7d3348	0.98906374
25	0x3f808ace	1.004236
26	0x3f7dc8d5	0.9913457
27	0x3f80c70e	1.0060747
28	0x3f7c87c8	0.98644686
29	0x3f7cea9a	0.98795474
30	0x3f831a72	1.0242445
31	0x3f7ee659	0.9957023
32	0x3f8023b2	1.0010893
33	0x3f7d8d19	0.9904342
34	0x3f822127	1.0166367
35	0x3f808332	1.0040038
36	0x3f807cae	1.0038049
37	0x3f807386	1.0035255
38	0x3f7fda45	0.9994243
39	0x3f7eab3f	0.9948005
40	0x3f7dc96a	0.9913546
41	0x3f7753c2	0.9661218
42	0x3f80189b	1.0007509
43	0x3f8022a9	1.0010577
44	0x3f813447	1.0094079
45	0x3f79f901	0.97645575
46	0x3f7c0576	0.9844583
47	0x3f7fc1a7	0.99904865
48	0x3f79de35	0.97604686
49	0x3f7d7432	0.99005425
50	0x3f8109a5	1.0081068
51	0x3f7d159d	0.98861104
52	0x3f7fd9c2	0.9994165
53	0x3f7f3b2b	0.9969966
54	0x3f7b32fa	0.9812466
55	0x3f829c07	1.0203866
56	0x3f7c3097	0.9851164
57	0x3f84cb54	1.0374551
58	0x3f82e78d	1.0226914
59	0x3f7c1371	0.98467165
60	0x3f83a043	1.0283283
61	0x3f8125d4	1.0089669
62	0x3f80156a	1.0006535
63	0x3f7d7b59	0.9901634
64	0x3f803657	1.0016583
65	0x3f7d2506	0.9888462
66	0x3f75aadb	0.9596383
67	0x3f81fd3e	1.0155408
68	0x3f7c625d	0.9858759
69	0x3f800000	1.0
70	0x3f81fa36	1.0154483
71	0x3f80307f	1.00148
72	0x3f814f17	1.0102261
73	0x3f80e5d1	1.0070134
74	0x3f7f7a91	0.99796396
75	0x3f81bd18	1.0135832
76	0x3f827147	1.019082
77	0x3f8425c7	1.0324029
78	0x3f7efa25	0.9960044
79	0x3f7f088d	0.9962242
80	0x3f7e6a72	0.9938117
81	0x3f7cd16f	0.9875707
82	0x3f7a3ede	0.9775218
83	0x3f7e28c1	0.99280936
84	0x3f7aa975	0.9791482
85	0x3f803868	1.0017214
86	0x3f81ec79	1.0150291
87	0x3f7f94e5	0.9983657
88	0x3f7e4feb	0.99340695
89	0x3f816dcb	1.0111631
90	0x3f81b68f	1.0133837
91	0x3f803207	1.0015267
92	0x3f81a0ea	1.0127232
93	0x3f7a37d2	0.97741425
94	0x3f7df749	0.9920545
95	0x3f827339	1.0191413
96	0x3f7ff5b5	0.99984294
97	0x3f80bb11	1.0057088
98	0x3f80b6b2	1.0055754
99	0x3f81579b	1.010486
100	0x3f7ff98c	0.99990153
101	0x3f814fce	1.010248
102	0x3f7edc3f	0.9955482
103	0x3f8043fc	1.0020747
104	0x3f79d2ac	0.97587085
105	0x3f7ffee1	0.9999829
106	0x3f835650	1.0260715
107	0x3f7de165	0.9917205
108	0x3f7f0e98	0.99631643
109	0x3f80f61c	1.0075107
110	0x3f7ed657	0.99545807
111	0x3f7b2a07	0.98111004
112	0x3f7bf213	0.9841625
113	0x3f80cddd	1.0062824
114	0x3f827652	1.0192358
115	0x3f819a78	1.0125265
116	0x3f8047d1	1.0021917
117	0x3f7fc094	0.99903226
118	0x3f83814d	1.0273834
119	0x3f79d554	0.9759114
120	0x3f7d9d4b	0.99068135
121	0x3f82850b	1.0196851
122	0x3f821435	1.0162417
123	0x3f7b8f10	0.9826517
124	0x3f814c77	1.010146
125	0x3f7e9e79	0.9946056
126	0x3f7af1ab	0.98025006
127	0x3f7a9bca	0.97893965
128	0x3f83d290	1.0298634
129	0x3f792a5d	0.97330266
130	0x3f80a6c6	1.0050895
131	0x3f7fe340	0.9995613
132	0x3f7d33de	0.9890727
133	0x3f8183f0	1.0118389
134	0x3f7d8209	0.9902654
135	0x3f7e36ee	0.99302566
136	0x3f805369	1.0025455
137	0x3f7b7ee7	0.9824051
138	0x3f80fd0c	1.0077224
139	0x3f817f56	1.0116985
140	0x3f7d66e5	0.9898513
141	0x3f7e765d	0.9939936
142	0x3f7cc2f7	0.9873499
143	0x3f807ddb	1.0038408
144	0x3f80a77c	1.0051112
145	0x3f80305f	1.0014762
146	0x3f81b9b9	1.0134803
147	0x3f7aab21	0.9791737
148	0x3f83edcd	1.0306946
149	0x3f81ee6c	1.0150886
150	0x3f8018db	1.0007585
151	0x3f7d87ca	0.9903532
152	0x3f803094	1.0014825
153	0x3f7cb838	0.98718596
154	0x3f80d1a4	1.0063977
155	0x3f808bd0	1.0042667
156	0x3f805dcc	1.0028625
157	0x3f7fe186	0.99953496
158	0x3f7b10a0	0.9807224
159	0x3f8161f9	1.0108024
160	0x3f7e7e5f	0.99411577
161	0x3f7df613	0.99203604
162	0x3f7dc813	0.99133414
163	0x3f7bc760	0.983511
164	0x3f7b9407	0.98272747
165	0x3f7e878f	0.99425596
166	0x3f80a117	1.0049161
167	0x3f80b245	1.0054404
168	0x3f7eec2e	0.9957913
169	0x3f7a816f	0.9785375
170	0x3f7bf84e	0.9842576
171	0x3f79296c	0.9732883
172	0x3f83f731	1.0309812
173	0x3f7c5ae5	0.98576194
174	0x3f7cd5c8	0.98763704
175	0x3f7b62c9	0.9819761
176	0x3f774260	0.96585655
177	0x3f7e5563	0.9934904
178	0x3f7b3379	0.98125416
179	0x3f7fba81	0.9989396
180	0x3f7fda48	0.99942446
181	0x3f7b8484	0.9824908
182	0x3f7ed76d	0.99547464
183	0x3f812343	1.0088886
184	0x3f7d6714	0.9898541
185	0x3f85c318	1.0450163
186	0x3f7cbddf	0.9872722
187	0x3f800a01	1.0003053
188	0x3f805c08	1.0028086
189	0x3f8219b2	1.0164092
190	0x3f80afd7	1.0053662
191	0x3f7f0e41	0.99631125
192	0x3f80a669	1.0050784
193	0x3f80ed0c	1.0072341
194	0x3f7ee0d7	0.9956183
195	0x3f80698f	1.0032214
196	0x3f8003a6	1.0001113
197	0x3f78c6b6	0.9717821
198	0x3f8013fe	1.0006101
199	0x3f80205d	1.0009876
200	0x3f7fc12e	0.99904144
201	0x3f7cbe8c	0.9872825
202	0x3f814bb4	1.0101228
203	0x3f838ce1	1.0277368

batchnorm1.bias f4 [204]
0	0x3d902deb	0.07040008
1	0x3d515874	0.051109746
2	0xbd831234	-0.06399956
3	0x3d10dc15	0.035366137
4	0xbc3b84c9	-0.011445233
5	0x3de616f5	0.112348475
6	0x3daa19f3	0.08305731
7	0xbcf73c95	-0.030180255
8	0x3bcae63a	0.006191996
9	0x3d30ca5b	0.04316173
10	0x3d59db9f	0.053187963
11	0x3d26c09c	0.04071103
12	0x3b588e19	0.0033043681
13	0x3a9a5234	0.0011773766
14	0xbbe94053	-0.0071182637
15	0x3c9e6226	0.01933391
16	0xbd775acc	-0.060389325
17	0x3cce8797	0.025211139
18	0x3db7dfe9	0.08978254
19	0x3bacc02d	0.0052719326
20	0x3da84501	0.082162865
21	0x3d8ef935	0.06981126
22	0xbceeadc4	-0.029135592
23	0x3d015f7e	0.03158521
24	0x3c8ed8da	0.017437387
25	0x3d011585	0.031514663
26	0x3bb169ce	0.005414224
27	0x3d04d2e0	0.03242767
28	0xbc85be7b	-0.01632618
29	0x3d3b18da	0.045677997
30	0xbcbb9b0b	-0.022901079
31	0x3c7d22ae	0.015450163
32	0xbdc903d5	-0.09815184
33	0xbd459f9a	-0.04824791
34	0x3d356288	0.04428342
35	0xb99f06fc	-0.00030332047
36	0x3d095c6c	0.033535406
37	0x3d75bbd8	0.059993595
38	0xbc7a6cfd	-0.015284774
39	0x3a9045af	0.0011007095
40	0xbd0f8765	-0.03504123
41	0xbd12eceb	-0.035870474
42	0x3a15ea6c	0.00057188305
43	0x3c18b1a8	0.0093197
44	0xbd6220d4	-0.05520709
45	0xbd569b30	-0.052394092
46	0x3c900bf2	0.017583821
47	0xbc9113bc	-0.017709605
48	0x3d52895e	0.051400535
49	0xbc929cfa	-0.017897118
50	0xbd30ea2c	-0.043192074
51	0xbd92f57c	-0.07175729
52	0xbd2aff78	-0.04174754
53	0x3d0d94c4	0.034565702
54	0x3cf99610	0.030467063
55	0x3d9c835b	0.076422416
56	0xbd6ba499	-0.05753002
57	0x3da8f7e1	0.08250404
58	0x3ba882ef	0.0051425616
59	0xbceb49b9	-0.028721677
60	0xbd23fd7d	-0.040036667
61	0xbd8649af	-0.06557023
62	0x3a1d686d	0.00060046354
63	0xbc370787	-0.011171228
64	0xbd6423c5	-0.055698175
65	0xbd9e9d49	-0.077448435
66	0xbccc6bfa	-0.024953831
67	0x3d9ed841	0.07756091
68	0x3d60dc08	0.05489734
69	0x3e3359c9	0.17514719
70	0xbbd5bf3c	-0.006523041
71	0xbc38e529	-0.011285105
72	0x3d2e0f4b	0.042495053
73	0x3dad7e4f	0.08471357
74	0x3b3a77a5	0.0028452661
75	0xbc7f5fb0	-0.0155867785
76	0x3d931d2e	0.071833
77	0x3dc26a93	0.09492984
78	0x3d7c9fda	0.061675884
79	0x3d3d14d6	0.04616245
80	0x3d32df0b	0.04366974
81	0x3c69e15a	0.014274919
82	0x3d7d1bb4	0.061793998
83	0xbd92a6b8	-0.07160705
84	0xbb4c5369	-0.0031177646
85	0x3d2d91c5	0.042375345
86	0xbd306aef	-0.04307073
87	0xbe0c8317	-0.13721882
88	0x3cdf80fe	0.027283188
89	0xbb5c528f	-0.0033618545
90	0xbc11df65	-0.008903359
91	0x3cfffd04	0.031248577
92	0x3c8646e6	0.016391229
93	0x3d7530ef	0.05986112
94	0xbcef661a	-0.02922349
95	0x3d412888	0.047157794
96	0xbd8e1a59	-0.06938619
97	0xbc2edce2	-0.01067278
98	0x3d21f6f6	0.03954216
99	0x3ccb2000	0.024795532
100	0xbd1e1ec3	-0.038603555
101	0xbd324d16	-0.043530546
102	0xbb822607	-0.0039718184
103	0xbc2a025d	-0.01037654
104	0x3bfeb469	0.0077729714
105	0xbd634e85	-0.055494804
106	0x3d92df23	0.07171466
107	0xbcc36f2c	-0.023856722
108	0xbcd5f29e	-0.026116665
109	0x3d0e970a	0.03481201
110	0x3c326cd4	0.010890204
111	0x3d766351	0.06015331
112	0xbd36d880	-0.044640064
113	0x3d000906	0.031258605
114	0xbda6e822	-0.081497446
115	0x3db5b181	0.08871747
116	0xbd0b57a6	-0.034019135
117	0xbd72eaa7	-0.059305813
118	0xbc3c681c	-0.011499431
119	0x3ce8b477	0.028406365
120	0x3c1a9355	0.009434541
121	0x3ba03049	0.0048885685
122	0x3cb4f47e	0.02208924
123	0xbb02ed6f	-0.0019977947
124	0x3d44683c	0.04795097
125	0x3da6d4a2	0.08146025
126	0x3cf6fd61	0.030150117
127	0xbb67871d	-0.0035328337
128	0xbca5dfac	-0.020248257
129	0xbd52a08b	-0.051422637
130	0xbd316b6d	-0.04331534
131	0x3d7a0085	0.06103565
132	0x3cbb4a44	0.022862561
133	0x3d2ddf96	0.042449556
134	0x3b88b448	0.004171882
135	0x3d980527	0.07422858
136	0x3d10d91a	0.035363294
137	0xbd33dbc5	-0.04391076
138	0x3d8dac9e	0.0691769
139	0xbd4d94e9	-0.05019084
140	0xbd20c5c4	-0.039251104
141	0x3d8b1c3b	0.06792494
142	0x3cf2f974	0.029659964
143	0x3cab43c0	0.02090633
144	0x3e056d5f	0.13030003
145	0x3b057a45	0.0020367068
146	0x3da1fd04	0.07909587
147	0xbc0acb9c	-0.008471396
148	0xbb524633	-0.00320853
149	0xbc00ad08	-0.007853754
150	0x3d195cee	0.03744214
151	0x3da26cad	0.079308845
152	0xbda21e86	-0.07915978
153	0x3c358b7e	0.011080621
154	0x3d7d1732	0.0617897
155	0xbc71005c	-0.014709558
156	0xbc86341a	-0.016382266
157	0xb913892a	-0.0001407011
158	0x3c65bf42	0.01402265
159	0x3d5c790b	0.053826373
160	0x3d564373	0.05231042
161	0x3c9f379e	0.0194357
162	0x3ca71639	0.020396339
163	0x39ab959e	0.00032727135
164	0xbcb3816c	-0.0219123
165	0x3caa1fd1	0.020767124
166	0x3d3a00cf	0.045410927
167	0xbca81322	-0.020516936
168	0x3d0c708a	0.034287013
169	0x3d8c4c1a	0.06850453
170	0x3b99d3f4	0.0046944562
171	0xbca30745	-0.019900927
172	0x3cbb8eda	0.022895265
173	0x3d12e13d	0.035859335
174	0x3d46ec3d	0.048565138
175	0xbd12837b	-0.03576992
176	0x3d72979d	0.05922662
177	0x3d615802	0.05501557
178	0x3d1c8fe1	0.03822315
179	0xbcea2ad2	-0.028584871
180	0xbbc3519f	-0.0059606577
181	0x3b9fbd14	0.004874835
182	0x3b32a555	0.002725919
183	0x3cfd2f9b	0.03090649
184	0xbcaa2918	-0.020771548
185	0x3d20c770	0.0392527
186	0x3cc42719	0.023944424
187	0xbce3f2c9	-0.02782573
188	0xbd81616f	-0.06317412
189	0xbcb40e84	-0.021979578
190	0x3d23ade1	0.039960746
191	0x3d95c1f2	0.07312383
192	0xbd1af2ad	-0.03782909
193	0xbcb40c30	-0.021978468
194	0x3c95ccf9	0.018286215
195	0xbce2a185	-0.02766491
196	0x3ce69e87	0.028151764
197	0x3a6021ca	0.0008549957
198	0xb9906168	-0.00027538394
199	0xbd1de38a	-0.038547076
200	0x3d2ac03c	0.041687235
201	0x3dbf49d2	0.09340252
202	0xbcd7e2b4	-0.026353218
203	0xbd83d19b	-0.064364634

batchnorm1.running_mean f4 [204]
0	0x3dbee391	0.093207486
1	0x3ddf8aaf	0.10915124
2	0x3e3445d7	0.17604767
3	0x3cd07ffb	0.02545165
4	0x3d2b5e0a	0.04183773
5	0x3c5a5182	0.013325097
6	0x3c29b2a0	0.010357529
7	0x3e20ea5f	0.15714405
8	0x3df6d6b5	0.12052671
9	0x3c5d2654	0.013497908
10	0x3dc8d83c	0.098068684
11	0x3d913294	0.07089725
12	0x3bce5d8f	0.006297774
13	0x3d4ee809	0.050514255
14	0x3d800cf2	0.06252469
15	0x3d9aea80	0.075642586
16	0x3e94877f	0.29009625
17	0x3c1b7999	0.00948944
18	0x3d4670df	0.048447486
19	0x3d4db700	0.05022335
20	0x3eb981a3	0.36231717
21	0x3daeced0	0.0853554
22	0x3c196348	0.009362049
23	0x3d1645f2	0.0366878
24	0x3e5aba0e	0.21360037
25	0x3df9230b	0.12164887
26	0x3ee9a1f6	0.4563138
27	0x3dca130d	0.09866915
28	0x3b6ebe85	0.0036429476
29	0x3cb1baf4	0.021695592
30	0x39456bdb	0.00018827563
31	0x3e24a481	0.16078378
32	0x3e542e43	0.20720772
33	0x3e872ca2	0.2640124
34	0x3ca79afb	0.020459643
35	0x3e27abc2	0.16374114
36	0x3cab7274	0.020928599
37	0x3dc0bb34	0.09410706
38	0x3aaf7381	0.0013385863
39	0x3e6635dd	0.22481485
40	0x3e1fb5f5	0.15596755
41	0x3c075b32	0.008261489
42	0x3cebba82	0.028775457
43	0x3d22cf66	0.03974857
44	0x3d09b98e	0.033624224
45	0x3d049e63	0.03237761
46	0x3d4cc6f4	0.049994424
47	0x3d921b45	0.071341075
48	0x39b2a75b	0.00034075495
49	0x3e067929	0.13132156
50	0x3e8a866a	0.27055675
51	0x3e0c6967	0.13712083
52	0x3dcaa2e3	0.098943494
53	0x3cc782e0	0.024354398
54	0x3e64b27d	0.22333713
55	0x3996852c	0.0002870945
56	0x3958da00	0.00020680577
57	0x385b48c8	5.228145e-05
58	0x3d1702ad	0.036867786
59	0x3c618892	0.013765471
60	0x3c27ff46	0.010253733
61	0x3dc0e01a	0.09417744
62	0x3cec0701	0.028811933
63	0x3d03d0dc	0.032181606
64	0x3e0c8eb3	0.1372631
65	0x3e0b9eec	0.13634843
66	0x3d596d4f	0.05308276
67	0x3e074f5b	0.13213865
68	0x3cef0789	0.029178398
69	0x00000000	0.0
70	0x3dd46a63	0.10371854
71	0x3c7e96a5	0.015538846
72	0x3abc5226	0.0014367744
73	0x3dab13af	0.08353364
74	0x3beb67fe	0.0071840277
75	0x3dd807f5	0.10548393
76	0x3c813b6b	0.015775403
77	0x38b436d9	8.593285e-05
78	0x3d4137e6	0.04717245
79	0x3e1344b1	0.14381672
80	0x3e1b1fac	0.151488
81	0x3c6b7d1b	0.014373089
82	0x3ca779bc	0.02044379
83	0x3dbd6a67	0.0924881
84	0x3d1b48c9	0.03791121
85	0x3b9c5e63	0.004771994
86	0x3ceafd7b	0.028685322
87	0x37ca1b54	2.4093002e-05
88	0x3df17157	0.11789196
89	0x3d8d2e7e	0.06893633
90	0x3d8c2e68	0.06844789
91	0x3a594f36	0.00082896964
92	0x3d84e14b	0.06488284
93	0x3cc7dbec	0.02439686
94	0x3e4407c5	0.19143589
95	0x3c2883aa	0.010285297
96	0x3d2c5b68	0.04207936
97	0x3ba46375	0.005016739
98	0x3e5d528d	0.21613522
99	0x3e0e4c9b	0.1389641
100	0x3edb6d4c	0.42856824
101	0x3e2e4738	0.17019355
102	0x3d8b440a	0.06800087
103	0x3e083830	0.13302684
104	0x3dc334e8	0.095315754
105	0x3e28ff5f	0.16503666
106	0x3dc8c9e5	0.09804133
107	0x3dba2988	0.09089953
108	0x3e08b137	0.13348852
109	0x3e378f64	0.17925793
110	0x3cd29f35	0.025710681
111	0x3ac6f2af	0.0015178527
112	0x3c8bfa1c	0.017087035
113	0x3dc02d1e	0.093836054
114	0x37eb0fbc	2.802151e-05
115	0x3d9f07b7	0.07765143
116	0x3e775c42	0.24156287
117	0x3e0cfcb7	0.13768278
118	0x392e4c27	0.00016622302
119	0x3d80ce5e	0.062893614
120	0x3d7f4ec3	0.062330972
121	0x3d617b92	0.055049486
122	0x3d9915be	0.0747485
123	0x3ee3154e	0.44352192
124	0x3ea5cc8f	0.32382628
125	0x3da12983	0.07869246
126	0x3c9e4d06	0.019323837
127	0x3d54d4e2	0.051960833
128	0x3d8d9706	0.06913571
129	0x3e1777bd	0.1479177
130	0x3c22a78f	0.009927644
131	0x3dac97e5	0.08427409
132	0x3c9eec46	0.019399773
133	0x3e29db70	0.16587615
134	0x3cba9e59	0.022780584
135	0x3c9a4b4b	0.01883473
136	0x3da31642	0.0796323
137	0x3b5c0c96	0.0033576838
138	0x3c42bb78	0.011885516
139	0x3ddf3d6b	0.109003864
140	0x3e30a043	0.17248635
141	0x3ddbf159	0.10739393
142	0x3dce8cc5	0.100854434
143	0x3b81c778	0.003960546
144	0x3d343a61	0.044000987
145	0x3e5d2ae8	0.21598399
146	0x38d7a070	0.00010281883
147	0x3cb41a10	0.021985084
148	0x3b951ab5	0.004550303
149	0x3e09c46e	0.13453838
150	0x3b84686f	0.0040407698
151	0x3dce947d	0.10086916
152	0x3c885e97	0.016646666
153	0x3d67c3fe	0.056583397
154	0x3d9fa280	0.07794666
155	0x3e0c6956	0.13712057
156	0x3c5648c2	0.01307887
157	0x3cabbcdc	0.020964079
158	0x3d85d7c1	0.065352924
159	0x3cbaf3d2	0.02282134
160	0x3d822e61	0.06356502
161	0x3b02aa62	0.0019937982
162	0x3cba1b8d	0.022718215
163	0x3dae955c	0.08524582
164	0x3e22ce48	0.15899003
165	0x3c5e7d3f	0.013579666
166	0x3cfed3bd	0.031106824
167	0x3d5c1b34	0.05373688
168	0x3be7dea2	0.0070761004
169	0x3c1d8c32	0.009615945
170	0x3e471d23	0.19444709
171	0x3aeb8e18	0.0017971424
172	0x3dbb5bc4	0.09148362
173	0x3e271f40	0.16320515
174	0x3df44301	0.119268425
175	0x3dd54d84	0.104151756
176	0x3accdebf	0.0015630348
177	0x3c0f97b4	0.008764196
178	0x3caabf87	0.02084328
179	0x3e22f12a	0.1591231
180	0x3d85c1fc	0.0653114
181	0x3e0f5422	0.13996938
182	0x3dc58a5e	0.09645532
183	0x3e1c8f80	0.15289116
184	0x3d349575	0.044087846
185	0x3cbf1799	0.023326682
186	0x3d3e2451	0.046421353
187	0x3e0dc57b	0.13844864
188	0x3e27be88	0.16381276
189	0x3c9e5acd	0.019330407
190	0x3c6aaaec	0.0143229775
191	0x3e1ac0aa	0.15112558
192	0x3e1393eb	0.14411895
193	0x3c1536fb	0.009107347
194	0x3cde05cc	0.027102374
195	0x3e6ccfaf	0.231261
196	0x3e0f6ee3	0.14007144
197	0x3e15791f	0.14596985
198	0x3cba9b4f	0.022779135
199	0x3ea9ed37	0.33188793
200	0x3b3a956b	0.0028470408
201	0x3dc11924	0.09428623
202	0x397d7d63	0.0002417467
203	0x39875a68	0.00025816564
